{"format": "graph-model", "generatedBy": "2.19.0", "convertedBy": "TensorFlow.js Converter v4.22.0", "signature": {"outputs": {"Identity:0": {"name": "Identity:0"}}}, "modelTopology": {"node": [{"name": "ConstantFolding/model_119/tf.math.divide_5/truediv_recip", "op": "Const", "attr": {"value": {"tensor": {"dtype": "DT_FLOAT", "tensorShape": {}}}, "dtype": {"type": "DT_FLOAT"}}}, {"name": "model_119/tf.strided_slice_107/ones_like/tensor", "op": "Const", "attr": {"value": {"tensor": {"dtype": "DT_INT64", "tensorShape": {"dim": [{"size": "3"}]}}}, "dtype": {"type": "DT_INT64"}}}, {"name": "model_119/tf.strided_slice_107/StridedSlice/end", "op": "Const", "attr": {"value": {"tensor": {"dtype": "DT_INT64", "tensorShape": {"dim": [{"size": "3"}]}}}, "dtype": {"type": "DT_INT64"}}}, {"name": "model_119/tf.strided_slice_107/ones_like", "op": "Const", "attr": {"value": {"tensor": {"dtype": "DT_INT64", "tensorShape": {"dim": [{"size": "3"}]}}}, "dtype": {"type": "DT_INT64"}}}, {"name": "model_119/tf.math.add_460/Add/y", "op": "Const", "attr": {"value": {"tensor": {"dtype": "DT_FLOAT", "tensorShape": {"dim": [{"size": "1"}, {"size": "2"}, {"size": "8400"}]}}}, "dtype": {"type": "DT_FLOAT"}}}, {"name": "model_119/89843", "op": "Const", "attr": {"value": {"tensor": {"dtype": "DT_FLOAT", "tensorShape": {"dim": [{"size": "1"}, {"size": "2"}, {"size": "8400"}]}}}, "dtype": {"type": "DT_FLOAT"}}}, {"name": "model_119/tf.nn.convolution_356/convolution/filter", "op": "Const", "attr": {"value": {"tensor": {"dtype": "DT_FLOAT", "tensorShape": {"dim": [{"size": "3"}, {"size": "3"}, {"size": "128"}, {"size": "64"}]}}}, "dtype": {"type": "DT_FLOAT"}}}, {"name": "model_119/tf.math.add_433/Add/y", "op": "Const", "attr": {"value": {"tensor": {"dtype": "DT_FLOAT", "tensorShape": {"dim": [{"size": "64"}]}}}, "dtype": {"type": "DT_FLOAT"}}}, {"name": "model_119/tf.nn.convolution_358/convolution/filter", "op": "Const", "attr": {"value": {"tensor": {"dtype": "DT_FLOAT", "tensorShape": {"dim": [{"size": "3"}, {"size": "3"}, {"size": "64"}, {"size": "64"}]}}}, "dtype": {"type": "DT_FLOAT"}}}, {"name": "model_119/tf.math.add_435/Add/y", "op": "Const", "attr": {"value": {"tensor": {"dtype": "DT_FLOAT", "tensorShape": {"dim": [{"size": "64"}]}}}, "dtype": {"type": "DT_FLOAT"}}}, {"name": "model_119/tf.nn.convolution_361/convolution/filter", "op": "Const", "attr": {"value": {"tensor": {"dtype": "DT_FLOAT", "tensorShape": {"dim": [{"size": "1"}, {"size": "1"}, {"size": "64"}, {"size": "64"}]}}}, "dtype": {"type": "DT_FLOAT"}}}, {"name": "model_119/tf.math.add_438/Add/y", "op": "Const", "attr": {"value": {"tensor": {"dtype": "DT_FLOAT", "tensorShape": {"dim": [{"size": "64"}]}}}, "dtype": {"type": "DT_FLOAT"}}}, {"name": "model_119/tf.compat.v1.transpose_573/transpose/perm", "op": "Const", "attr": {"value": {"tensor": {"dtype": "DT_INT32", "tensorShape": {"dim": [{"size": "4"}]}}}, "dtype": {"type": "DT_INT32"}}}, {"name": "model_119/tf.reshape_122/Reshape/shape", "op": "Const", "attr": {"value": {"tensor": {"dtype": "DT_INT32", "tensorShape": {"dim": [{"size": "3"}]}}}, "dtype": {"type": "DT_INT32"}}}, {"name": "model_119/tf.nn.convolution_367/convolution/filter", "op": "Const", "attr": {"value": {"tensor": {"dtype": "DT_FLOAT", "tensorShape": {"dim": [{"size": "3"}, {"size": "3"}, {"size": "256"}, {"size": "64"}]}}}, "dtype": {"type": "DT_FLOAT"}}}, {"name": "model_119/tf.math.add_444/Add/y", "op": "Const", "attr": {"value": {"tensor": {"dtype": "DT_FLOAT", "tensorShape": {"dim": [{"size": "64"}]}}}, "dtype": {"type": "DT_FLOAT"}}}, {"name": "model_119/tf.nn.convolution_369/convolution/filter", "op": "Const", "attr": {"value": {"tensor": {"dtype": "DT_FLOAT", "tensorShape": {"dim": [{"size": "3"}, {"size": "3"}, {"size": "64"}, {"size": "64"}]}}}, "dtype": {"type": "DT_FLOAT"}}}, {"name": "model_119/tf.math.add_446/Add/y", "op": "Const", "attr": {"value": {"tensor": {"dtype": "DT_FLOAT", "tensorShape": {"dim": [{"size": "64"}]}}}, "dtype": {"type": "DT_FLOAT"}}}, {"name": "model_119/tf.nn.convolution_372/convolution/filter", "op": "Const", "attr": {"value": {"tensor": {"dtype": "DT_FLOAT", "tensorShape": {"dim": [{"size": "1"}, {"size": "1"}, {"size": "64"}, {"size": "64"}]}}}, "dtype": {"type": "DT_FLOAT"}}}, {"name": "model_119/tf.math.add_449/Add/y", "op": "Const", "attr": {"value": {"tensor": {"dtype": "DT_FLOAT", "tensorShape": {"dim": [{"size": "64"}]}}}, "dtype": {"type": "DT_FLOAT"}}}, {"name": "model_119/tf.compat.v1.transpose_592/transpose/perm", "op": "Const", "attr": {"value": {"tensor": {"dtype": "DT_INT32", "tensorShape": {"dim": [{"size": "4"}]}}}, "dtype": {"type": "DT_INT32"}}}, {"name": "model_119/tf.reshape_128/Reshape/shape", "op": "Const", "attr": {"value": {"tensor": {"dtype": "DT_INT32", "tensorShape": {"dim": [{"size": "3"}]}}}, "dtype": {"type": "DT_INT32"}}}, {"name": "model_119/tf.nn.convolution_377/convolution/filter", "op": "Const", "attr": {"value": {"tensor": {"dtype": "DT_FLOAT", "tensorShape": {"dim": [{"size": "3"}, {"size": "3"}, {"size": "512"}, {"size": "64"}]}}}, "dtype": {"type": "DT_FLOAT"}}}, {"name": "model_119/tf.math.add_454/Add/y", "op": "Const", "attr": {"value": {"tensor": {"dtype": "DT_FLOAT", "tensorShape": {"dim": [{"size": "64"}]}}}, "dtype": {"type": "DT_FLOAT"}}}, {"name": "model_119/tf.nn.convolution_379/convolution/filter", "op": "Const", "attr": {"value": {"tensor": {"dtype": "DT_FLOAT", "tensorShape": {"dim": [{"size": "3"}, {"size": "3"}, {"size": "64"}, {"size": "64"}]}}}, "dtype": {"type": "DT_FLOAT"}}}, {"name": "model_119/tf.math.add_456/Add/y", "op": "Const", "attr": {"value": {"tensor": {"dtype": "DT_FLOAT", "tensorShape": {"dim": [{"size": "64"}]}}}, "dtype": {"type": "DT_FLOAT"}}}, {"name": "model_119/tf.nn.convolution_381/convolution/filter", "op": "Const", "attr": {"value": {"tensor": {"dtype": "DT_FLOAT", "tensorShape": {"dim": [{"size": "1"}, {"size": "1"}, {"size": "64"}, {"size": "64"}]}}}, "dtype": {"type": "DT_FLOAT"}}}, {"name": "model_119/tf.math.add_458/Add/y", "op": "Const", "attr": {"value": {"tensor": {"dtype": "DT_FLOAT", "tensorShape": {"dim": [{"size": "64"}]}}}, "dtype": {"type": "DT_FLOAT"}}}, {"name": "model_119/tf.compat.v1.transpose_609/transpose/perm", "op": "Const", "attr": {"value": {"tensor": {"dtype": "DT_INT32", "tensorShape": {"dim": [{"size": "4"}]}}}, "dtype": {"type": "DT_INT32"}}}, {"name": "model_119/tf.reshape_134/Reshape/shape", "op": "Const", "attr": {"value": {"tensor": {"dtype": "DT_INT32", "tensorShape": {"dim": [{"size": "3"}]}}}, "dtype": {"type": "DT_INT32"}}}, {"name": "model_119/tf.concat_113/concat/axis", "op": "Const", "attr": {"value": {"tensor": {"dtype": "DT_INT32", "tensorShape": {}}}, "dtype": {"type": "DT_INT32"}}}, {"name": "model_119/tf.reshape_140/Reshape/shape", "op": "Const", "attr": {"value": {"tensor": {"dtype": "DT_INT32", "tensorShape": {"dim": [{"size": "4"}]}}}, "dtype": {"type": "DT_INT32"}}}, {"name": "model_119/tf.compat.v1.transpose_621/transpose/perm", "op": "Const", "attr": {"value": {"tensor": {"dtype": "DT_INT32", "tensorShape": {"dim": [{"size": "4"}]}}}, "dtype": {"type": "DT_INT32"}}}, {"name": "model_119/tf.compat.v1.transpose_622/transpose/perm", "op": "Const", "attr": {"value": {"tensor": {"dtype": "DT_INT32", "tensorShape": {"dim": [{"size": "4"}]}}}, "dtype": {"type": "DT_INT32"}}}, {"name": "model_119/tf.nn.convolution_383/convolution/filter", "op": "Const", "attr": {"value": {"tensor": {"dtype": "DT_FLOAT", "tensorShape": {"dim": [{"size": "1"}, {"size": "1"}, {"size": "16"}, {"size": "1"}]}}}, "dtype": {"type": "DT_FLOAT"}}}, {"name": "model_119/tf.compat.v1.transpose_627/transpose/perm", "op": "Const", "attr": {"value": {"tensor": {"dtype": "DT_INT32", "tensorShape": {"dim": [{"size": "4"}]}}}, "dtype": {"type": "DT_INT32"}}}, {"name": "model_119/tf.reshape_143/Reshape/shape", "op": "Const", "attr": {"value": {"tensor": {"dtype": "DT_INT32", "tensorShape": {"dim": [{"size": "3"}]}}}, "dtype": {"type": "DT_INT32"}}}, {"name": "model_119/tf.strided_slice_106/ones_like/tensor", "op": "Const", "attr": {"value": {"tensor": {"dtype": "DT_INT64", "tensorShape": {"dim": [{"size": "3"}]}}}, "dtype": {"type": "DT_INT64"}}}, {"name": "model_119/tf.strided_slice_106/StridedSlice/end", "op": "Const", "attr": {"value": {"tensor": {"dtype": "DT_INT64", "tensorShape": {"dim": [{"size": "3"}]}}}, "dtype": {"type": "DT_INT64"}}}, {"name": "model_119/tf.strided_slice_106/ones_like", "op": "Const", "attr": {"value": {"tensor": {"dtype": "DT_INT64", "tensorShape": {"dim": [{"size": "3"}]}}}, "dtype": {"type": "DT_INT64"}}}, {"name": "model_119/tf.concat_118/concat/axis", "op": "Const", "attr": {"value": {"tensor": {"dtype": "DT_INT32", "tensorShape": {}}}, "dtype": {"type": "DT_INT32"}}}, {"name": "model_119/tf.math.multiply_1493/Mul/y", "op": "Const", "attr": {"value": {"tensor": {"dtype": "DT_FLOAT", "tensorShape": {"dim": [{"size": "1"}, {"size": "1"}, {"size": "8400"}]}}}, "dtype": {"type": "DT_FLOAT"}}}, {"name": "model_119/tf.nn.convolution_357/convolution/filter", "op": "Const", "attr": {"value": {"tensor": {"dtype": "DT_FLOAT", "tensorShape": {"dim": [{"size": "3"}, {"size": "3"}, {"size": "128"}, {"size": "128"}]}}}, "dtype": {"type": "DT_FLOAT"}}}, {"name": "model_119/tf.math.add_434/Add/y", "op": "Const", "attr": {"value": {"tensor": {"dtype": "DT_FLOAT", "tensorShape": {"dim": [{"size": "128"}]}}}, "dtype": {"type": "DT_FLOAT"}}}, {"name": "model_119/tf.nn.convolution_359/convolution/filter", "op": "Const", "attr": {"value": {"tensor": {"dtype": "DT_FLOAT", "tensorShape": {"dim": [{"size": "3"}, {"size": "3"}, {"size": "128"}, {"size": "128"}]}}}, "dtype": {"type": "DT_FLOAT"}}}, {"name": "model_119/tf.math.add_436/Add/y", "op": "Const", "attr": {"value": {"tensor": {"dtype": "DT_FLOAT", "tensorShape": {"dim": [{"size": "128"}]}}}, "dtype": {"type": "DT_FLOAT"}}}, {"name": "model_119/tf.nn.convolution_362/convolution/filter", "op": "Const", "attr": {"value": {"tensor": {"dtype": "DT_FLOAT", "tensorShape": {"dim": [{"size": "1"}, {"size": "1"}, {"size": "128"}, {"size": "52"}]}}}, "dtype": {"type": "DT_FLOAT"}}}, {"name": "model_119/tf.math.add_439/Add/y", "op": "Const", "attr": {"value": {"tensor": {"dtype": "DT_FLOAT", "tensorShape": {"dim": [{"size": "52"}]}}}, "dtype": {"type": "DT_FLOAT"}}}, {"name": "model_119/tf.compat.v1.transpose_578/transpose/perm", "op": "Const", "attr": {"value": {"tensor": {"dtype": "DT_INT32", "tensorShape": {"dim": [{"size": "4"}]}}}, "dtype": {"type": "DT_INT32"}}}, {"name": "model_119/tf.reshape_125/Reshape/shape", "op": "Const", "attr": {"value": {"tensor": {"dtype": "DT_INT32", "tensorShape": {"dim": [{"size": "3"}]}}}, "dtype": {"type": "DT_INT32"}}}, {"name": "model_119/tf.nn.convolution_368/convolution/filter", "op": "Const", "attr": {"value": {"tensor": {"dtype": "DT_FLOAT", "tensorShape": {"dim": [{"size": "3"}, {"size": "3"}, {"size": "256"}, {"size": "128"}]}}}, "dtype": {"type": "DT_FLOAT"}}}, {"name": "model_119/tf.math.add_445/Add/y", "op": "Const", "attr": {"value": {"tensor": {"dtype": "DT_FLOAT", "tensorShape": {"dim": [{"size": "128"}]}}}, "dtype": {"type": "DT_FLOAT"}}}, {"name": "model_119/tf.nn.convolution_370/convolution/filter", "op": "Const", "attr": {"value": {"tensor": {"dtype": "DT_FLOAT", "tensorShape": {"dim": [{"size": "3"}, {"size": "3"}, {"size": "128"}, {"size": "128"}]}}}, "dtype": {"type": "DT_FLOAT"}}}, {"name": "model_119/tf.math.add_447/Add/y", "op": "Const", "attr": {"value": {"tensor": {"dtype": "DT_FLOAT", "tensorShape": {"dim": [{"size": "128"}]}}}, "dtype": {"type": "DT_FLOAT"}}}, {"name": "model_119/tf.nn.convolution_373/convolution/filter", "op": "Const", "attr": {"value": {"tensor": {"dtype": "DT_FLOAT", "tensorShape": {"dim": [{"size": "1"}, {"size": "1"}, {"size": "128"}, {"size": "52"}]}}}, "dtype": {"type": "DT_FLOAT"}}}, {"name": "model_119/tf.math.add_450/Add/y", "op": "Const", "attr": {"value": {"tensor": {"dtype": "DT_FLOAT", "tensorShape": {"dim": [{"size": "52"}]}}}, "dtype": {"type": "DT_FLOAT"}}}, {"name": "model_119/tf.compat.v1.transpose_597/transpose/perm", "op": "Const", "attr": {"value": {"tensor": {"dtype": "DT_INT32", "tensorShape": {"dim": [{"size": "4"}]}}}, "dtype": {"type": "DT_INT32"}}}, {"name": "model_119/tf.reshape_131/Reshape/shape", "op": "Const", "attr": {"value": {"tensor": {"dtype": "DT_INT32", "tensorShape": {"dim": [{"size": "3"}]}}}, "dtype": {"type": "DT_INT32"}}}, {"name": "model_119/tf.strided_slice_104/ones_like/tensor", "op": "Const", "attr": {"value": {"tensor": {"dtype": "DT_INT64", "tensorShape": {"dim": [{"size": "4"}]}}}, "dtype": {"type": "DT_INT64"}}}, {"name": "model_119/tf.strided_slice_104/StridedSlice/end", "op": "Const", "attr": {"value": {"tensor": {"dtype": "DT_INT64", "tensorShape": {"dim": [{"size": "4"}]}}}, "dtype": {"type": "DT_INT64"}}}, {"name": "model_119/tf.strided_slice_104/ones_like", "op": "Const", "attr": {"value": {"tensor": {"dtype": "DT_INT64", "tensorShape": {"dim": [{"size": "4"}]}}}, "dtype": {"type": "DT_INT64"}}}, {"name": "model_119/tf.strided_slice_102/ones_like/tensor", "op": "Const", "attr": {"value": {"tensor": {"dtype": "DT_INT64", "tensorShape": {"dim": [{"size": "4"}]}}}, "dtype": {"type": "DT_INT64"}}}, {"name": "model_119/tf.strided_slice_102/StridedSlice/end", "op": "Const", "attr": {"value": {"tensor": {"dtype": "DT_INT64", "tensorShape": {"dim": [{"size": "4"}]}}}, "dtype": {"type": "DT_INT64"}}}, {"name": "model_119/tf.strided_slice_102/ones_like", "op": "Const", "attr": {"value": {"tensor": {"dtype": "DT_INT64", "tensorShape": {"dim": [{"size": "4"}]}}}, "dtype": {"type": "DT_INT64"}}}, {"name": "model_119/tf.strided_slice_100/ones_like/tensor", "op": "Const", "attr": {"value": {"tensor": {"dtype": "DT_INT64", "tensorShape": {"dim": [{"size": "4"}]}}}, "dtype": {"type": "DT_INT64"}}}, {"name": "model_119/tf.strided_slice_100/StridedSlice/end", "op": "Const", "attr": {"value": {"tensor": {"dtype": "DT_INT64", "tensorShape": {"dim": [{"size": "4"}]}}}, "dtype": {"type": "DT_INT64"}}}, {"name": "model_119/tf.strided_slice_100/ones_like", "op": "Const", "attr": {"value": {"tensor": {"dtype": "DT_INT64", "tensorShape": {"dim": [{"size": "4"}]}}}, "dtype": {"type": "DT_INT64"}}}, {"name": "model_119/tf.image.resize_11/resize/size", "op": "Const", "attr": {"value": {"tensor": {"dtype": "DT_INT32", "tensorShape": {"dim": [{"size": "2"}]}}}, "dtype": {"type": "DT_INT32"}}}, {"name": "model_119/tf.concat_107/concat/axis", "op": "Const", "attr": {"value": {"tensor": {"dtype": "DT_INT32", "tensorShape": {}}}, "dtype": {"type": "DT_INT32"}}}, {"name": "model_119/tf.nn.convolution_351/convolution/filter", "op": "Const", "attr": {"value": {"tensor": {"dtype": "DT_FLOAT", "tensorShape": {"dim": [{"size": "1"}, {"size": "1"}, {"size": "384"}, {"size": "128"}]}}}, "dtype": {"type": "DT_FLOAT"}}}, {"name": "model_119/tf.math.add_428/Add/y", "op": "Const", "attr": {"value": {"tensor": {"dtype": "DT_FLOAT", "tensorShape": {"dim": [{"size": "128"}]}}}, "dtype": {"type": "DT_FLOAT"}}}, {"name": "model_119/tf.strided_slice_101/ones_like/tensor", "op": "Const", "attr": {"value": {"tensor": {"dtype": "DT_INT64", "tensorShape": {"dim": [{"size": "4"}]}}}, "dtype": {"type": "DT_INT64"}}}, {"name": "model_119/tf.strided_slice_101/StridedSlice/end", "op": "Const", "attr": {"value": {"tensor": {"dtype": "DT_INT64", "tensorShape": {"dim": [{"size": "4"}]}}}, "dtype": {"type": "DT_INT64"}}}, {"name": "model_119/tf.strided_slice_101/ones_like", "op": "Const", "attr": {"value": {"tensor": {"dtype": "DT_INT64", "tensorShape": {"dim": [{"size": "4"}]}}}, "dtype": {"type": "DT_INT64"}}}, {"name": "model_119/tf.nn.convolution_352/convolution/filter", "op": "Const", "attr": {"value": {"tensor": {"dtype": "DT_FLOAT", "tensorShape": {"dim": [{"size": "3"}, {"size": "3"}, {"size": "64"}, {"size": "64"}]}}}, "dtype": {"type": "DT_FLOAT"}}}, {"name": "model_119/tf.math.add_429/Add/y", "op": "Const", "attr": {"value": {"tensor": {"dtype": "DT_FLOAT", "tensorShape": {"dim": [{"size": "64"}]}}}, "dtype": {"type": "DT_FLOAT"}}}, {"name": "model_119/tf.nn.convolution_353/convolution/filter", "op": "Const", "attr": {"value": {"tensor": {"dtype": "DT_FLOAT", "tensorShape": {"dim": [{"size": "3"}, {"size": "3"}, {"size": "64"}, {"size": "64"}]}}}, "dtype": {"type": "DT_FLOAT"}}}, {"name": "model_119/tf.math.add_430/Add/y", "op": "Const", "attr": {"value": {"tensor": {"dtype": "DT_FLOAT", "tensorShape": {"dim": [{"size": "64"}]}}}, "dtype": {"type": "DT_FLOAT"}}}, {"name": "model_119/tf.concat_108/concat/axis", "op": "Const", "attr": {"value": {"tensor": {"dtype": "DT_INT32", "tensorShape": {}}}, "dtype": {"type": "DT_INT32"}}}, {"name": "model_119/tf.nn.convolution_354/convolution/filter", "op": "Const", "attr": {"value": {"tensor": {"dtype": "DT_FLOAT", "tensorShape": {"dim": [{"size": "1"}, {"size": "1"}, {"size": "192"}, {"size": "128"}]}}}, "dtype": {"type": "DT_FLOAT"}}}, {"name": "model_119/tf.math.add_431/Add/y", "op": "Const", "attr": {"value": {"tensor": {"dtype": "DT_FLOAT", "tensorShape": {"dim": [{"size": "128"}]}}}, "dtype": {"type": "DT_FLOAT"}}}, {"name": "model_119/tf.compat.v1.pad_40/Pad/paddings", "op": "Const", "attr": {"value": {"tensor": {"dtype": "DT_INT32", "tensorShape": {"dim": [{"size": "4"}, {"size": "2"}]}}}, "dtype": {"type": "DT_INT32"}}}, {"name": "model_119/tf.nn.convolution_355/convolution/filter", "op": "Const", "attr": {"value": {"tensor": {"dtype": "DT_FLOAT", "tensorShape": {"dim": [{"size": "3"}, {"size": "3"}, {"size": "128"}, {"size": "128"}]}}}, "dtype": {"type": "DT_FLOAT"}}}, {"name": "model_119/tf.math.add_432/Add/y", "op": "Const", "attr": {"value": {"tensor": {"dtype": "DT_FLOAT", "tensorShape": {"dim": [{"size": "128"}]}}}, "dtype": {"type": "DT_FLOAT"}}}, {"name": "model_119/tf.strided_slice_98/ones_like/tensor", "op": "Const", "attr": {"value": {"tensor": {"dtype": "DT_INT64", "tensorShape": {"dim": [{"size": "4"}]}}}, "dtype": {"type": "DT_INT64"}}}, {"name": "model_119/tf.strided_slice_98/StridedSlice/end", "op": "Const", "attr": {"value": {"tensor": {"dtype": "DT_INT64", "tensorShape": {"dim": [{"size": "4"}]}}}, "dtype": {"type": "DT_INT64"}}}, {"name": "model_119/tf.strided_slice_98/ones_like", "op": "Const", "attr": {"value": {"tensor": {"dtype": "DT_INT64", "tensorShape": {"dim": [{"size": "4"}]}}}, "dtype": {"type": "DT_INT64"}}}, {"name": "model_119/tf.image.resize_10/resize/size", "op": "Const", "attr": {"value": {"tensor": {"dtype": "DT_INT32", "tensorShape": {"dim": [{"size": "2"}]}}}, "dtype": {"type": "DT_INT32"}}}, {"name": "model_119/tf.concat_105/concat/axis", "op": "Const", "attr": {"value": {"tensor": {"dtype": "DT_INT32", "tensorShape": {}}}, "dtype": {"type": "DT_INT32"}}}, {"name": "model_119/tf.nn.convolution_347/convolution/filter", "op": "Const", "attr": {"value": {"tensor": {"dtype": "DT_FLOAT", "tensorShape": {"dim": [{"size": "1"}, {"size": "1"}, {"size": "768"}, {"size": "256"}]}}}, "dtype": {"type": "DT_FLOAT"}}}, {"name": "model_119/tf.math.add_424/Add/y", "op": "Const", "attr": {"value": {"tensor": {"dtype": "DT_FLOAT", "tensorShape": {"dim": [{"size": "256"}]}}}, "dtype": {"type": "DT_FLOAT"}}}, {"name": "model_119/tf.strided_slice_99/ones_like/tensor", "op": "Const", "attr": {"value": {"tensor": {"dtype": "DT_INT64", "tensorShape": {"dim": [{"size": "4"}]}}}, "dtype": {"type": "DT_INT64"}}}, {"name": "model_119/tf.strided_slice_99/StridedSlice/end", "op": "Const", "attr": {"value": {"tensor": {"dtype": "DT_INT64", "tensorShape": {"dim": [{"size": "4"}]}}}, "dtype": {"type": "DT_INT64"}}}, {"name": "model_119/tf.strided_slice_99/ones_like", "op": "Const", "attr": {"value": {"tensor": {"dtype": "DT_INT64", "tensorShape": {"dim": [{"size": "4"}]}}}, "dtype": {"type": "DT_INT64"}}}, {"name": "model_119/tf.nn.convolution_348/convolution/filter", "op": "Const", "attr": {"value": {"tensor": {"dtype": "DT_FLOAT", "tensorShape": {"dim": [{"size": "3"}, {"size": "3"}, {"size": "128"}, {"size": "128"}]}}}, "dtype": {"type": "DT_FLOAT"}}}, {"name": "model_119/tf.math.add_425/Add/y", "op": "Const", "attr": {"value": {"tensor": {"dtype": "DT_FLOAT", "tensorShape": {"dim": [{"size": "128"}]}}}, "dtype": {"type": "DT_FLOAT"}}}, {"name": "model_119/tf.nn.convolution_349/convolution/filter", "op": "Const", "attr": {"value": {"tensor": {"dtype": "DT_FLOAT", "tensorShape": {"dim": [{"size": "3"}, {"size": "3"}, {"size": "128"}, {"size": "128"}]}}}, "dtype": {"type": "DT_FLOAT"}}}, {"name": "model_119/tf.math.add_426/Add/y", "op": "Const", "attr": {"value": {"tensor": {"dtype": "DT_FLOAT", "tensorShape": {"dim": [{"size": "128"}]}}}, "dtype": {"type": "DT_FLOAT"}}}, {"name": "model_119/tf.concat_106/concat/axis", "op": "Const", "attr": {"value": {"tensor": {"dtype": "DT_INT32", "tensorShape": {}}}, "dtype": {"type": "DT_INT32"}}}, {"name": "model_119/tf.nn.convolution_350/convolution/filter", "op": "Const", "attr": {"value": {"tensor": {"dtype": "DT_FLOAT", "tensorShape": {"dim": [{"size": "1"}, {"size": "1"}, {"size": "384"}, {"size": "256"}]}}}, "dtype": {"type": "DT_FLOAT"}}}, {"name": "model_119/tf.math.add_427/Add/y", "op": "Const", "attr": {"value": {"tensor": {"dtype": "DT_FLOAT", "tensorShape": {"dim": [{"size": "256"}]}}}, "dtype": {"type": "DT_FLOAT"}}}, {"name": "model_119/tf.concat_109/concat/axis", "op": "Const", "attr": {"value": {"tensor": {"dtype": "DT_INT32", "tensorShape": {}}}, "dtype": {"type": "DT_INT32"}}}, {"name": "model_119/tf.nn.convolution_360/convolution/filter", "op": "Const", "attr": {"value": {"tensor": {"dtype": "DT_FLOAT", "tensorShape": {"dim": [{"size": "1"}, {"size": "1"}, {"size": "384"}, {"size": "256"}]}}}, "dtype": {"type": "DT_FLOAT"}}}, {"name": "model_119/tf.math.add_437/Add/y", "op": "Const", "attr": {"value": {"tensor": {"dtype": "DT_FLOAT", "tensorShape": {"dim": [{"size": "256"}]}}}, "dtype": {"type": "DT_FLOAT"}}}, {"name": "model_119/tf.strided_slice_103/ones_like/tensor", "op": "Const", "attr": {"value": {"tensor": {"dtype": "DT_INT64", "tensorShape": {"dim": [{"size": "4"}]}}}, "dtype": {"type": "DT_INT64"}}}, {"name": "model_119/tf.strided_slice_103/StridedSlice/end", "op": "Const", "attr": {"value": {"tensor": {"dtype": "DT_INT64", "tensorShape": {"dim": [{"size": "4"}]}}}, "dtype": {"type": "DT_INT64"}}}, {"name": "model_119/tf.strided_slice_103/ones_like", "op": "Const", "attr": {"value": {"tensor": {"dtype": "DT_INT64", "tensorShape": {"dim": [{"size": "4"}]}}}, "dtype": {"type": "DT_INT64"}}}, {"name": "model_119/tf.nn.convolution_363/convolution/filter", "op": "Const", "attr": {"value": {"tensor": {"dtype": "DT_FLOAT", "tensorShape": {"dim": [{"size": "3"}, {"size": "3"}, {"size": "128"}, {"size": "128"}]}}}, "dtype": {"type": "DT_FLOAT"}}}, {"name": "model_119/tf.math.add_440/Add/y", "op": "Const", "attr": {"value": {"tensor": {"dtype": "DT_FLOAT", "tensorShape": {"dim": [{"size": "128"}]}}}, "dtype": {"type": "DT_FLOAT"}}}, {"name": "model_119/tf.nn.convolution_364/convolution/filter", "op": "Const", "attr": {"value": {"tensor": {"dtype": "DT_FLOAT", "tensorShape": {"dim": [{"size": "3"}, {"size": "3"}, {"size": "128"}, {"size": "128"}]}}}, "dtype": {"type": "DT_FLOAT"}}}, {"name": "model_119/tf.math.add_441/Add/y", "op": "Const", "attr": {"value": {"tensor": {"dtype": "DT_FLOAT", "tensorShape": {"dim": [{"size": "128"}]}}}, "dtype": {"type": "DT_FLOAT"}}}, {"name": "model_119/tf.concat_110/concat/axis", "op": "Const", "attr": {"value": {"tensor": {"dtype": "DT_INT32", "tensorShape": {}}}, "dtype": {"type": "DT_INT32"}}}, {"name": "model_119/tf.nn.convolution_365/convolution/filter", "op": "Const", "attr": {"value": {"tensor": {"dtype": "DT_FLOAT", "tensorShape": {"dim": [{"size": "1"}, {"size": "1"}, {"size": "384"}, {"size": "256"}]}}}, "dtype": {"type": "DT_FLOAT"}}}, {"name": "model_119/tf.math.add_442/Add/y", "op": "Const", "attr": {"value": {"tensor": {"dtype": "DT_FLOAT", "tensorShape": {"dim": [{"size": "256"}]}}}, "dtype": {"type": "DT_FLOAT"}}}, {"name": "model_119/tf.compat.v1.pad_41/Pad/paddings", "op": "Const", "attr": {"value": {"tensor": {"dtype": "DT_INT32", "tensorShape": {"dim": [{"size": "4"}, {"size": "2"}]}}}, "dtype": {"type": "DT_INT32"}}}, {"name": "model_119/tf.nn.convolution_366/convolution/filter", "op": "Const", "attr": {"value": {"tensor": {"dtype": "DT_FLOAT", "tensorShape": {"dim": [{"size": "3"}, {"size": "3"}, {"size": "256"}, {"size": "256"}]}}}, "dtype": {"type": "DT_FLOAT"}}}, {"name": "model_119/tf.math.add_443/Add/y", "op": "Const", "attr": {"value": {"tensor": {"dtype": "DT_FLOAT", "tensorShape": {"dim": [{"size": "256"}]}}}, "dtype": {"type": "DT_FLOAT"}}}, {"name": "model_119/tf.strided_slice_96/ones_like/tensor", "op": "Const", "attr": {"value": {"tensor": {"dtype": "DT_INT64", "tensorShape": {"dim": [{"size": "4"}]}}}, "dtype": {"type": "DT_INT64"}}}, {"name": "model_119/tf.strided_slice_96/StridedSlice/end", "op": "Const", "attr": {"value": {"tensor": {"dtype": "DT_INT64", "tensorShape": {"dim": [{"size": "4"}]}}}, "dtype": {"type": "DT_INT64"}}}, {"name": "model_119/tf.strided_slice_96/ones_like", "op": "Const", "attr": {"value": {"tensor": {"dtype": "DT_INT64", "tensorShape": {"dim": [{"size": "4"}]}}}, "dtype": {"type": "DT_INT64"}}}, {"name": "model_119/tf.strided_slice_94/ones_like/tensor", "op": "Const", "attr": {"value": {"tensor": {"dtype": "DT_INT64", "tensorShape": {"dim": [{"size": "4"}]}}}, "dtype": {"type": "DT_INT64"}}}, {"name": "model_119/tf.strided_slice_94/StridedSlice/end", "op": "Const", "attr": {"value": {"tensor": {"dtype": "DT_INT64", "tensorShape": {"dim": [{"size": "4"}]}}}, "dtype": {"type": "DT_INT64"}}}, {"name": "model_119/tf.strided_slice_94/ones_like", "op": "Const", "attr": {"value": {"tensor": {"dtype": "DT_INT64", "tensorShape": {"dim": [{"size": "4"}]}}}, "dtype": {"type": "DT_INT64"}}}, {"name": "model_119/tf.strided_slice_92/ones_like/tensor", "op": "Const", "attr": {"value": {"tensor": {"dtype": "DT_INT64", "tensorShape": {"dim": [{"size": "4"}]}}}, "dtype": {"type": "DT_INT64"}}}, {"name": "model_119/tf.strided_slice_92/StridedSlice/end", "op": "Const", "attr": {"value": {"tensor": {"dtype": "DT_INT64", "tensorShape": {"dim": [{"size": "4"}]}}}, "dtype": {"type": "DT_INT64"}}}, {"name": "model_119/tf.strided_slice_92/ones_like", "op": "Const", "attr": {"value": {"tensor": {"dtype": "DT_INT64", "tensorShape": {"dim": [{"size": "4"}]}}}, "dtype": {"type": "DT_INT64"}}}, {"name": "model_119/tf.strided_slice_90/ones_like/tensor", "op": "Const", "attr": {"value": {"tensor": {"dtype": "DT_INT64", "tensorShape": {"dim": [{"size": "4"}]}}}, "dtype": {"type": "DT_INT64"}}}, {"name": "model_119/tf.strided_slice_90/StridedSlice/end", "op": "Const", "attr": {"value": {"tensor": {"dtype": "DT_INT64", "tensorShape": {"dim": [{"size": "4"}]}}}, "dtype": {"type": "DT_INT64"}}}, {"name": "model_119/tf.strided_slice_90/ones_like", "op": "Const", "attr": {"value": {"tensor": {"dtype": "DT_INT64", "tensorShape": {"dim": [{"size": "4"}]}}}, "dtype": {"type": "DT_INT64"}}}, {"name": "model_119/tf.compat.v1.pad_35/Pad/paddings", "op": "Const", "attr": {"value": {"tensor": {"dtype": "DT_INT32", "tensorShape": {"dim": [{"size": "4"}, {"size": "2"}]}}}, "dtype": {"type": "DT_INT32"}}}, {"name": "model_119/tf.nn.convolution_320/convolution/filter", "op": "Const", "attr": {"value": {"tensor": {"dtype": "DT_FLOAT", "tensorShape": {"dim": [{"size": "3"}, {"size": "3"}, {"size": "3"}, {"size": "32"}]}}}, "dtype": {"type": "DT_FLOAT"}}}, {"name": "model_119/tf.math.add_385/Add/y", "op": "Const", "attr": {"value": {"tensor": {"dtype": "DT_FLOAT", "tensorShape": {"dim": [{"size": "32"}]}}}, "dtype": {"type": "DT_FLOAT"}}}, {"name": "model_119/tf.compat.v1.pad_36/Pad/paddings", "op": "Const", "attr": {"value": {"tensor": {"dtype": "DT_INT32", "tensorShape": {"dim": [{"size": "4"}, {"size": "2"}]}}}, "dtype": {"type": "DT_INT32"}}}, {"name": "model_119/tf.nn.convolution_321/convolution/filter", "op": "Const", "attr": {"value": {"tensor": {"dtype": "DT_FLOAT", "tensorShape": {"dim": [{"size": "3"}, {"size": "3"}, {"size": "32"}, {"size": "64"}]}}}, "dtype": {"type": "DT_FLOAT"}}}, {"name": "model_119/tf.math.add_386/Add/y", "op": "Const", "attr": {"value": {"tensor": {"dtype": "DT_FLOAT", "tensorShape": {"dim": [{"size": "64"}]}}}, "dtype": {"type": "DT_FLOAT"}}}, {"name": "model_119/tf.nn.convolution_322/convolution/filter", "op": "Const", "attr": {"value": {"tensor": {"dtype": "DT_FLOAT", "tensorShape": {"dim": [{"size": "1"}, {"size": "1"}, {"size": "64"}, {"size": "64"}]}}}, "dtype": {"type": "DT_FLOAT"}}}, {"name": "model_119/tf.math.add_387/Add/y", "op": "Const", "attr": {"value": {"tensor": {"dtype": "DT_FLOAT", "tensorShape": {"dim": [{"size": "64"}]}}}, "dtype": {"type": "DT_FLOAT"}}}, {"name": "model_119/tf.strided_slice_91/ones_like/tensor", "op": "Const", "attr": {"value": {"tensor": {"dtype": "DT_INT64", "tensorShape": {"dim": [{"size": "4"}]}}}, "dtype": {"type": "DT_INT64"}}}, {"name": "model_119/tf.strided_slice_91/StridedSlice/end", "op": "Const", "attr": {"value": {"tensor": {"dtype": "DT_INT64", "tensorShape": {"dim": [{"size": "4"}]}}}, "dtype": {"type": "DT_INT64"}}}, {"name": "model_119/tf.strided_slice_91/ones_like", "op": "Const", "attr": {"value": {"tensor": {"dtype": "DT_INT64", "tensorShape": {"dim": [{"size": "4"}]}}}, "dtype": {"type": "DT_INT64"}}}, {"name": "model_119/tf.nn.convolution_323/convolution/filter", "op": "Const", "attr": {"value": {"tensor": {"dtype": "DT_FLOAT", "tensorShape": {"dim": [{"size": "3"}, {"size": "3"}, {"size": "32"}, {"size": "32"}]}}}, "dtype": {"type": "DT_FLOAT"}}}, {"name": "model_119/tf.math.add_388/Add/y", "op": "Const", "attr": {"value": {"tensor": {"dtype": "DT_FLOAT", "tensorShape": {"dim": [{"size": "32"}]}}}, "dtype": {"type": "DT_FLOAT"}}}, {"name": "model_119/tf.nn.convolution_324/convolution/filter", "op": "Const", "attr": {"value": {"tensor": {"dtype": "DT_FLOAT", "tensorShape": {"dim": [{"size": "3"}, {"size": "3"}, {"size": "32"}, {"size": "32"}]}}}, "dtype": {"type": "DT_FLOAT"}}}, {"name": "model_119/tf.math.add_389/Add/y", "op": "Const", "attr": {"value": {"tensor": {"dtype": "DT_FLOAT", "tensorShape": {"dim": [{"size": "32"}]}}}, "dtype": {"type": "DT_FLOAT"}}}, {"name": "model_119/tf.concat_100/concat/axis", "op": "Const", "attr": {"value": {"tensor": {"dtype": "DT_INT32", "tensorShape": {}}}, "dtype": {"type": "DT_INT32"}}}, {"name": "model_119/tf.nn.convolution_325/convolution/filter", "op": "Const", "attr": {"value": {"tensor": {"dtype": "DT_FLOAT", "tensorShape": {"dim": [{"size": "1"}, {"size": "1"}, {"size": "96"}, {"size": "64"}]}}}, "dtype": {"type": "DT_FLOAT"}}}, {"name": "model_119/tf.math.add_392/Add/y", "op": "Const", "attr": {"value": {"tensor": {"dtype": "DT_FLOAT", "tensorShape": {"dim": [{"size": "64"}]}}}, "dtype": {"type": "DT_FLOAT"}}}, {"name": "model_119/tf.compat.v1.pad_37/Pad/paddings", "op": "Const", "attr": {"value": {"tensor": {"dtype": "DT_INT32", "tensorShape": {"dim": [{"size": "4"}, {"size": "2"}]}}}, "dtype": {"type": "DT_INT32"}}}, {"name": "model_119/tf.nn.convolution_326/convolution/filter", "op": "Const", "attr": {"value": {"tensor": {"dtype": "DT_FLOAT", "tensorShape": {"dim": [{"size": "3"}, {"size": "3"}, {"size": "64"}, {"size": "128"}]}}}, "dtype": {"type": "DT_FLOAT"}}}, {"name": "model_119/tf.math.add_393/Add/y", "op": "Const", "attr": {"value": {"tensor": {"dtype": "DT_FLOAT", "tensorShape": {"dim": [{"size": "128"}]}}}, "dtype": {"type": "DT_FLOAT"}}}, {"name": "model_119/tf.nn.convolution_327/convolution/filter", "op": "Const", "attr": {"value": {"tensor": {"dtype": "DT_FLOAT", "tensorShape": {"dim": [{"size": "1"}, {"size": "1"}, {"size": "128"}, {"size": "128"}]}}}, "dtype": {"type": "DT_FLOAT"}}}, {"name": "model_119/tf.math.add_394/Add/y", "op": "Const", "attr": {"value": {"tensor": {"dtype": "DT_FLOAT", "tensorShape": {"dim": [{"size": "128"}]}}}, "dtype": {"type": "DT_FLOAT"}}}, {"name": "model_119/tf.strided_slice_93/ones_like/tensor", "op": "Const", "attr": {"value": {"tensor": {"dtype": "DT_INT64", "tensorShape": {"dim": [{"size": "4"}]}}}, "dtype": {"type": "DT_INT64"}}}, {"name": "model_119/tf.strided_slice_93/StridedSlice/end", "op": "Const", "attr": {"value": {"tensor": {"dtype": "DT_INT64", "tensorShape": {"dim": [{"size": "4"}]}}}, "dtype": {"type": "DT_INT64"}}}, {"name": "model_119/tf.strided_slice_93/ones_like", "op": "Const", "attr": {"value": {"tensor": {"dtype": "DT_INT64", "tensorShape": {"dim": [{"size": "4"}]}}}, "dtype": {"type": "DT_INT64"}}}, {"name": "model_119/tf.nn.convolution_328/convolution/filter", "op": "Const", "attr": {"value": {"tensor": {"dtype": "DT_FLOAT", "tensorShape": {"dim": [{"size": "3"}, {"size": "3"}, {"size": "64"}, {"size": "64"}]}}}, "dtype": {"type": "DT_FLOAT"}}}, {"name": "model_119/tf.math.add_395/Add/y", "op": "Const", "attr": {"value": {"tensor": {"dtype": "DT_FLOAT", "tensorShape": {"dim": [{"size": "64"}]}}}, "dtype": {"type": "DT_FLOAT"}}}, {"name": "model_119/tf.nn.convolution_329/convolution/filter", "op": "Const", "attr": {"value": {"tensor": {"dtype": "DT_FLOAT", "tensorShape": {"dim": [{"size": "3"}, {"size": "3"}, {"size": "64"}, {"size": "64"}]}}}, "dtype": {"type": "DT_FLOAT"}}}, {"name": "model_119/tf.math.add_396/Add/y", "op": "Const", "attr": {"value": {"tensor": {"dtype": "DT_FLOAT", "tensorShape": {"dim": [{"size": "64"}]}}}, "dtype": {"type": "DT_FLOAT"}}}, {"name": "model_119/tf.nn.convolution_330/convolution/filter", "op": "Const", "attr": {"value": {"tensor": {"dtype": "DT_FLOAT", "tensorShape": {"dim": [{"size": "3"}, {"size": "3"}, {"size": "64"}, {"size": "64"}]}}}, "dtype": {"type": "DT_FLOAT"}}}, {"name": "model_119/tf.math.add_399/Add/y", "op": "Const", "attr": {"value": {"tensor": {"dtype": "DT_FLOAT", "tensorShape": {"dim": [{"size": "64"}]}}}, "dtype": {"type": "DT_FLOAT"}}}, {"name": "model_119/tf.nn.convolution_331/convolution/filter", "op": "Const", "attr": {"value": {"tensor": {"dtype": "DT_FLOAT", "tensorShape": {"dim": [{"size": "3"}, {"size": "3"}, {"size": "64"}, {"size": "64"}]}}}, "dtype": {"type": "DT_FLOAT"}}}, {"name": "model_119/tf.math.add_400/Add/y", "op": "Const", "attr": {"value": {"tensor": {"dtype": "DT_FLOAT", "tensorShape": {"dim": [{"size": "64"}]}}}, "dtype": {"type": "DT_FLOAT"}}}, {"name": "model_119/tf.concat_101/concat/axis", "op": "Const", "attr": {"value": {"tensor": {"dtype": "DT_INT32", "tensorShape": {}}}, "dtype": {"type": "DT_INT32"}}}, {"name": "model_119/tf.nn.convolution_332/convolution/filter", "op": "Const", "attr": {"value": {"tensor": {"dtype": "DT_FLOAT", "tensorShape": {"dim": [{"size": "1"}, {"size": "1"}, {"size": "256"}, {"size": "128"}]}}}, "dtype": {"type": "DT_FLOAT"}}}, {"name": "model_119/tf.math.add_403/Add/y", "op": "Const", "attr": {"value": {"tensor": {"dtype": "DT_FLOAT", "tensorShape": {"dim": [{"size": "128"}]}}}, "dtype": {"type": "DT_FLOAT"}}}, {"name": "model_119/tf.compat.v1.pad_38/Pad/paddings", "op": "Const", "attr": {"value": {"tensor": {"dtype": "DT_INT32", "tensorShape": {"dim": [{"size": "4"}, {"size": "2"}]}}}, "dtype": {"type": "DT_INT32"}}}, {"name": "model_119/tf.nn.convolution_333/convolution/filter", "op": "Const", "attr": {"value": {"tensor": {"dtype": "DT_FLOAT", "tensorShape": {"dim": [{"size": "3"}, {"size": "3"}, {"size": "128"}, {"size": "256"}]}}}, "dtype": {"type": "DT_FLOAT"}}}, {"name": "model_119/tf.math.add_404/Add/y", "op": "Const", "attr": {"value": {"tensor": {"dtype": "DT_FLOAT", "tensorShape": {"dim": [{"size": "256"}]}}}, "dtype": {"type": "DT_FLOAT"}}}, {"name": "model_119/tf.nn.convolution_334/convolution/filter", "op": "Const", "attr": {"value": {"tensor": {"dtype": "DT_FLOAT", "tensorShape": {"dim": [{"size": "1"}, {"size": "1"}, {"size": "256"}, {"size": "256"}]}}}, "dtype": {"type": "DT_FLOAT"}}}, {"name": "model_119/tf.math.add_405/Add/y", "op": "Const", "attr": {"value": {"tensor": {"dtype": "DT_FLOAT", "tensorShape": {"dim": [{"size": "256"}]}}}, "dtype": {"type": "DT_FLOAT"}}}, {"name": "model_119/tf.strided_slice_95/ones_like/tensor", "op": "Const", "attr": {"value": {"tensor": {"dtype": "DT_INT64", "tensorShape": {"dim": [{"size": "4"}]}}}, "dtype": {"type": "DT_INT64"}}}, {"name": "model_119/tf.strided_slice_95/StridedSlice/end", "op": "Const", "attr": {"value": {"tensor": {"dtype": "DT_INT64", "tensorShape": {"dim": [{"size": "4"}]}}}, "dtype": {"type": "DT_INT64"}}}, {"name": "model_119/tf.strided_slice_95/ones_like", "op": "Const", "attr": {"value": {"tensor": {"dtype": "DT_INT64", "tensorShape": {"dim": [{"size": "4"}]}}}, "dtype": {"type": "DT_INT64"}}}, {"name": "model_119/tf.nn.convolution_335/convolution/filter", "op": "Const", "attr": {"value": {"tensor": {"dtype": "DT_FLOAT", "tensorShape": {"dim": [{"size": "3"}, {"size": "3"}, {"size": "128"}, {"size": "128"}]}}}, "dtype": {"type": "DT_FLOAT"}}}, {"name": "model_119/tf.math.add_406/Add/y", "op": "Const", "attr": {"value": {"tensor": {"dtype": "DT_FLOAT", "tensorShape": {"dim": [{"size": "128"}]}}}, "dtype": {"type": "DT_FLOAT"}}}, {"name": "model_119/tf.nn.convolution_336/convolution/filter", "op": "Const", "attr": {"value": {"tensor": {"dtype": "DT_FLOAT", "tensorShape": {"dim": [{"size": "3"}, {"size": "3"}, {"size": "128"}, {"size": "128"}]}}}, "dtype": {"type": "DT_FLOAT"}}}, {"name": "model_119/tf.math.add_407/Add/y", "op": "Const", "attr": {"value": {"tensor": {"dtype": "DT_FLOAT", "tensorShape": {"dim": [{"size": "128"}]}}}, "dtype": {"type": "DT_FLOAT"}}}, {"name": "model_119/tf.nn.convolution_337/convolution/filter", "op": "Const", "attr": {"value": {"tensor": {"dtype": "DT_FLOAT", "tensorShape": {"dim": [{"size": "3"}, {"size": "3"}, {"size": "128"}, {"size": "128"}]}}}, "dtype": {"type": "DT_FLOAT"}}}, {"name": "model_119/tf.math.add_410/Add/y", "op": "Const", "attr": {"value": {"tensor": {"dtype": "DT_FLOAT", "tensorShape": {"dim": [{"size": "128"}]}}}, "dtype": {"type": "DT_FLOAT"}}}, {"name": "model_119/tf.nn.convolution_338/convolution/filter", "op": "Const", "attr": {"value": {"tensor": {"dtype": "DT_FLOAT", "tensorShape": {"dim": [{"size": "3"}, {"size": "3"}, {"size": "128"}, {"size": "128"}]}}}, "dtype": {"type": "DT_FLOAT"}}}, {"name": "model_119/tf.math.add_411/Add/y", "op": "Const", "attr": {"value": {"tensor": {"dtype": "DT_FLOAT", "tensorShape": {"dim": [{"size": "128"}]}}}, "dtype": {"type": "DT_FLOAT"}}}, {"name": "model_119/tf.concat_102/concat/axis", "op": "Const", "attr": {"value": {"tensor": {"dtype": "DT_INT32", "tensorShape": {}}}, "dtype": {"type": "DT_INT32"}}}, {"name": "model_119/tf.nn.convolution_339/convolution/filter", "op": "Const", "attr": {"value": {"tensor": {"dtype": "DT_FLOAT", "tensorShape": {"dim": [{"size": "1"}, {"size": "1"}, {"size": "512"}, {"size": "256"}]}}}, "dtype": {"type": "DT_FLOAT"}}}, {"name": "model_119/tf.math.add_414/Add/y", "op": "Const", "attr": {"value": {"tensor": {"dtype": "DT_FLOAT", "tensorShape": {"dim": [{"size": "256"}]}}}, "dtype": {"type": "DT_FLOAT"}}}, {"name": "model_119/tf.compat.v1.pad_39/Pad/paddings", "op": "Const", "attr": {"value": {"tensor": {"dtype": "DT_INT32", "tensorShape": {"dim": [{"size": "4"}, {"size": "2"}]}}}, "dtype": {"type": "DT_INT32"}}}, {"name": "model_119/tf.nn.convolution_340/convolution/filter", "op": "Const", "attr": {"value": {"tensor": {"dtype": "DT_FLOAT", "tensorShape": {"dim": [{"size": "3"}, {"size": "3"}, {"size": "256"}, {"size": "512"}]}}}, "dtype": {"type": "DT_FLOAT"}}}, {"name": "model_119/tf.math.add_415/Add/y", "op": "Const", "attr": {"value": {"tensor": {"dtype": "DT_FLOAT", "tensorShape": {"dim": [{"size": "512"}]}}}, "dtype": {"type": "DT_FLOAT"}}}, {"name": "model_119/tf.nn.convolution_341/convolution/filter", "op": "Const", "attr": {"value": {"tensor": {"dtype": "DT_FLOAT", "tensorShape": {"dim": [{"size": "1"}, {"size": "1"}, {"size": "512"}, {"size": "512"}]}}}, "dtype": {"type": "DT_FLOAT"}}}, {"name": "model_119/tf.math.add_416/Add/y", "op": "Const", "attr": {"value": {"tensor": {"dtype": "DT_FLOAT", "tensorShape": {"dim": [{"size": "512"}]}}}, "dtype": {"type": "DT_FLOAT"}}}, {"name": "model_119/tf.strided_slice_97/ones_like/tensor", "op": "Const", "attr": {"value": {"tensor": {"dtype": "DT_INT64", "tensorShape": {"dim": [{"size": "4"}]}}}, "dtype": {"type": "DT_INT64"}}}, {"name": "model_119/tf.strided_slice_97/StridedSlice/end", "op": "Const", "attr": {"value": {"tensor": {"dtype": "DT_INT64", "tensorShape": {"dim": [{"size": "4"}]}}}, "dtype": {"type": "DT_INT64"}}}, {"name": "model_119/tf.strided_slice_97/ones_like", "op": "Const", "attr": {"value": {"tensor": {"dtype": "DT_INT64", "tensorShape": {"dim": [{"size": "4"}]}}}, "dtype": {"type": "DT_INT64"}}}, {"name": "model_119/tf.nn.convolution_342/convolution/filter", "op": "Const", "attr": {"value": {"tensor": {"dtype": "DT_FLOAT", "tensorShape": {"dim": [{"size": "3"}, {"size": "3"}, {"size": "256"}, {"size": "256"}]}}}, "dtype": {"type": "DT_FLOAT"}}}, {"name": "model_119/tf.math.add_417/Add/y", "op": "Const", "attr": {"value": {"tensor": {"dtype": "DT_FLOAT", "tensorShape": {"dim": [{"size": "256"}]}}}, "dtype": {"type": "DT_FLOAT"}}}, {"name": "model_119/tf.nn.convolution_343/convolution/filter", "op": "Const", "attr": {"value": {"tensor": {"dtype": "DT_FLOAT", "tensorShape": {"dim": [{"size": "3"}, {"size": "3"}, {"size": "256"}, {"size": "256"}]}}}, "dtype": {"type": "DT_FLOAT"}}}, {"name": "model_119/tf.math.add_418/Add/y", "op": "Const", "attr": {"value": {"tensor": {"dtype": "DT_FLOAT", "tensorShape": {"dim": [{"size": "256"}]}}}, "dtype": {"type": "DT_FLOAT"}}}, {"name": "model_119/tf.concat_103/concat/axis", "op": "Const", "attr": {"value": {"tensor": {"dtype": "DT_INT32", "tensorShape": {}}}, "dtype": {"type": "DT_INT32"}}}, {"name": "model_119/tf.nn.convolution_344/convolution/filter", "op": "Const", "attr": {"value": {"tensor": {"dtype": "DT_FLOAT", "tensorShape": {"dim": [{"size": "1"}, {"size": "1"}, {"size": "768"}, {"size": "512"}]}}}, "dtype": {"type": "DT_FLOAT"}}}, {"name": "model_119/tf.math.add_421/Add/y", "op": "Const", "attr": {"value": {"tensor": {"dtype": "DT_FLOAT", "tensorShape": {"dim": [{"size": "512"}]}}}, "dtype": {"type": "DT_FLOAT"}}}, {"name": "model_119/tf.nn.convolution_345/convolution/filter", "op": "Const", "attr": {"value": {"tensor": {"dtype": "DT_FLOAT", "tensorShape": {"dim": [{"size": "1"}, {"size": "1"}, {"size": "512"}, {"size": "256"}]}}}, "dtype": {"type": "DT_FLOAT"}}}, {"name": "model_119/tf.math.add_422/Add/y", "op": "Const", "attr": {"value": {"tensor": {"dtype": "DT_FLOAT", "tensorShape": {"dim": [{"size": "256"}]}}}, "dtype": {"type": "DT_FLOAT"}}}, {"name": "model_119/tf.concat_104/concat/axis", "op": "Const", "attr": {"value": {"tensor": {"dtype": "DT_INT32", "tensorShape": {}}}, "dtype": {"type": "DT_INT32"}}}, {"name": "model_119/tf.nn.convolution_346/convolution/filter", "op": "Const", "attr": {"value": {"tensor": {"dtype": "DT_FLOAT", "tensorShape": {"dim": [{"size": "1"}, {"size": "1"}, {"size": "1024"}, {"size": "512"}]}}}, "dtype": {"type": "DT_FLOAT"}}}, {"name": "model_119/tf.math.add_423/Add/y", "op": "Const", "attr": {"value": {"tensor": {"dtype": "DT_FLOAT", "tensorShape": {"dim": [{"size": "512"}]}}}, "dtype": {"type": "DT_FLOAT"}}}, {"name": "model_119/tf.concat_111/concat/axis", "op": "Const", "attr": {"value": {"tensor": {"dtype": "DT_INT32", "tensorShape": {}}}, "dtype": {"type": "DT_INT32"}}}, {"name": "model_119/tf.nn.convolution_371/convolution/filter", "op": "Const", "attr": {"value": {"tensor": {"dtype": "DT_FLOAT", "tensorShape": {"dim": [{"size": "1"}, {"size": "1"}, {"size": "768"}, {"size": "512"}]}}}, "dtype": {"type": "DT_FLOAT"}}}, {"name": "model_119/tf.math.add_448/Add/y", "op": "Const", "attr": {"value": {"tensor": {"dtype": "DT_FLOAT", "tensorShape": {"dim": [{"size": "512"}]}}}, "dtype": {"type": "DT_FLOAT"}}}, {"name": "model_119/tf.strided_slice_105/ones_like/tensor", "op": "Const", "attr": {"value": {"tensor": {"dtype": "DT_INT64", "tensorShape": {"dim": [{"size": "4"}]}}}, "dtype": {"type": "DT_INT64"}}}, {"name": "model_119/tf.strided_slice_105/StridedSlice/end", "op": "Const", "attr": {"value": {"tensor": {"dtype": "DT_INT64", "tensorShape": {"dim": [{"size": "4"}]}}}, "dtype": {"type": "DT_INT64"}}}, {"name": "model_119/tf.strided_slice_105/ones_like", "op": "Const", "attr": {"value": {"tensor": {"dtype": "DT_INT64", "tensorShape": {"dim": [{"size": "4"}]}}}, "dtype": {"type": "DT_INT64"}}}, {"name": "model_119/tf.nn.convolution_374/convolution/filter", "op": "Const", "attr": {"value": {"tensor": {"dtype": "DT_FLOAT", "tensorShape": {"dim": [{"size": "3"}, {"size": "3"}, {"size": "256"}, {"size": "256"}]}}}, "dtype": {"type": "DT_FLOAT"}}}, {"name": "model_119/tf.math.add_451/Add/y", "op": "Const", "attr": {"value": {"tensor": {"dtype": "DT_FLOAT", "tensorShape": {"dim": [{"size": "256"}]}}}, "dtype": {"type": "DT_FLOAT"}}}, {"name": "model_119/tf.nn.convolution_375/convolution/filter", "op": "Const", "attr": {"value": {"tensor": {"dtype": "DT_FLOAT", "tensorShape": {"dim": [{"size": "3"}, {"size": "3"}, {"size": "256"}, {"size": "256"}]}}}, "dtype": {"type": "DT_FLOAT"}}}, {"name": "model_119/tf.math.add_452/Add/y", "op": "Const", "attr": {"value": {"tensor": {"dtype": "DT_FLOAT", "tensorShape": {"dim": [{"size": "256"}]}}}, "dtype": {"type": "DT_FLOAT"}}}, {"name": "model_119/tf.concat_112/concat/axis", "op": "Const", "attr": {"value": {"tensor": {"dtype": "DT_INT32", "tensorShape": {}}}, "dtype": {"type": "DT_INT32"}}}, {"name": "model_119/tf.nn.convolution_376/convolution/filter", "op": "Const", "attr": {"value": {"tensor": {"dtype": "DT_FLOAT", "tensorShape": {"dim": [{"size": "1"}, {"size": "1"}, {"size": "768"}, {"size": "512"}]}}}, "dtype": {"type": "DT_FLOAT"}}}, {"name": "model_119/tf.math.add_453/Add/y", "op": "Const", "attr": {"value": {"tensor": {"dtype": "DT_FLOAT", "tensorShape": {"dim": [{"size": "512"}]}}}, "dtype": {"type": "DT_FLOAT"}}}, {"name": "model_119/tf.nn.convolution_378/convolution/filter", "op": "Const", "attr": {"value": {"tensor": {"dtype": "DT_FLOAT", "tensorShape": {"dim": [{"size": "3"}, {"size": "3"}, {"size": "512"}, {"size": "128"}]}}}, "dtype": {"type": "DT_FLOAT"}}}, {"name": "model_119/tf.math.add_455/Add/y", "op": "Const", "attr": {"value": {"tensor": {"dtype": "DT_FLOAT", "tensorShape": {"dim": [{"size": "128"}]}}}, "dtype": {"type": "DT_FLOAT"}}}, {"name": "model_119/tf.nn.convolution_380/convolution/filter", "op": "Const", "attr": {"value": {"tensor": {"dtype": "DT_FLOAT", "tensorShape": {"dim": [{"size": "3"}, {"size": "3"}, {"size": "128"}, {"size": "128"}]}}}, "dtype": {"type": "DT_FLOAT"}}}, {"name": "model_119/tf.math.add_457/Add/y", "op": "Const", "attr": {"value": {"tensor": {"dtype": "DT_FLOAT", "tensorShape": {"dim": [{"size": "128"}]}}}, "dtype": {"type": "DT_FLOAT"}}}, {"name": "model_119/tf.nn.convolution_382/convolution/filter", "op": "Const", "attr": {"value": {"tensor": {"dtype": "DT_FLOAT", "tensorShape": {"dim": [{"size": "1"}, {"size": "1"}, {"size": "128"}, {"size": "52"}]}}}, "dtype": {"type": "DT_FLOAT"}}}, {"name": "model_119/tf.math.add_459/Add/y", "op": "Const", "attr": {"value": {"tensor": {"dtype": "DT_FLOAT", "tensorShape": {"dim": [{"size": "52"}]}}}, "dtype": {"type": "DT_FLOAT"}}}, {"name": "model_119/tf.compat.v1.transpose_614/transpose/perm", "op": "Const", "attr": {"value": {"tensor": {"dtype": "DT_INT32", "tensorShape": {"dim": [{"size": "4"}]}}}, "dtype": {"type": "DT_INT32"}}}, {"name": "model_119/tf.reshape_137/Reshape/shape", "op": "Const", "attr": {"value": {"tensor": {"dtype": "DT_INT32", "tensorShape": {"dim": [{"size": "3"}]}}}, "dtype": {"type": "DT_INT32"}}}, {"name": "model_119/tf.concat_114/concat/axis", "op": "Const", "attr": {"value": {"tensor": {"dtype": "DT_INT32", "tensorShape": {}}}, "dtype": {"type": "DT_INT32"}}}, {"name": "model_119/output0/concat/axis", "op": "Const", "attr": {"value": {"tensor": {"dtype": "DT_INT32", "tensorShape": {}}}, "dtype": {"type": "DT_INT32"}}}, {"name": "x", "op": "Placeholder", "attr": {"shape": {"shape": {"dim": [{"size": "1"}, {"size": "640"}, {"size": "640"}, {"size": "3"}]}}, "dtype": {"type": "DT_FLOAT"}}}, {"name": "model_119/tf.compat.v1.pad_35/Pad", "op": "Pad", "input": ["x", "model_119/tf.compat.v1.pad_35/Pad/paddings"], "attr": {"Tpaddings": {"type": "DT_INT32"}, "T": {"type": "DT_FLOAT"}}}, {"name": "model_119/tf.math.add_385/Add", "op": "_FusedConv2D", "input": ["model_119/tf.compat.v1.pad_35/Pad", "model_119/tf.nn.convolution_320/convolution/filter", "model_119/tf.math.add_385/Add/y"], "device": "/device:CPU:0", "attr": {"num_host_args": {"i": "0"}, "data_format": {"s": "TkhXQw=="}, "filter_format": {"s": "SFdJTw=="}, "fused_ops": {"list": {"s": ["Qmlhc0FkZA=="]}}, "num_args": {"i": "1"}, "strides": {"list": {"i": ["1", "2", "2", "1"]}}, "TArgs": {"list": {"type": ["DT_FLOAT"]}}, "padding": {"s": "VkFMSUQ="}, "use_cudnn_on_gpu": {"b": true}, "leakyrelu_alpha": {"f": 0.2}, "epsilon": {"f": 0.0}, "T": {"type": "DT_FLOAT"}, "explicit_paddings": {"list": {}}, "dilations": {"list": {"i": ["1", "1", "1", "1"]}}}}, {"name": "model_119/tf.math.sigmoid_285/Sigmoid", "op": "Sigmoid", "input": ["model_119/tf.math.add_385/Add"], "attr": {"T": {"type": "DT_FLOAT"}}}, {"name": "model_119/tf.math.multiply_1248/Mul", "op": "Mul", "input": ["model_119/tf.math.add_385/Add", "model_119/tf.math.sigmoid_285/Sigmoid"], "attr": {"T": {"type": "DT_FLOAT"}}}, {"name": "model_119/tf.compat.v1.pad_36/Pad", "op": "Pad", "input": ["model_119/tf.math.multiply_1248/Mul", "model_119/tf.compat.v1.pad_36/Pad/paddings"], "attr": {"Tpaddings": {"type": "DT_INT32"}, "T": {"type": "DT_FLOAT"}}}, {"name": "model_119/tf.math.add_386/Add", "op": "_FusedConv2D", "input": ["model_119/tf.compat.v1.pad_36/Pad", "model_119/tf.nn.convolution_321/convolution/filter", "model_119/tf.math.add_386/Add/y"], "device": "/device:CPU:0", "attr": {"num_host_args": {"i": "0"}, "data_format": {"s": "TkhXQw=="}, "filter_format": {"s": "SFdJTw=="}, "strides": {"list": {"i": ["1", "2", "2", "1"]}}, "num_args": {"i": "1"}, "fused_ops": {"list": {"s": ["Qmlhc0FkZA=="]}}, "TArgs": {"list": {"type": ["DT_FLOAT"]}}, "padding": {"s": "VkFMSUQ="}, "use_cudnn_on_gpu": {"b": true}, "leakyrelu_alpha": {"f": 0.2}, "epsilon": {"f": 0.0}, "T": {"type": "DT_FLOAT"}, "explicit_paddings": {"list": {}}, "dilations": {"list": {"i": ["1", "1", "1", "1"]}}}}, {"name": "model_119/tf.math.sigmoid_286/Sigmoid", "op": "Sigmoid", "input": ["model_119/tf.math.add_386/Add"], "attr": {"T": {"type": "DT_FLOAT"}}}, {"name": "model_119/tf.math.multiply_1252/Mul", "op": "Mul", "input": ["model_119/tf.math.add_386/Add", "model_119/tf.math.sigmoid_286/Sigmoid"], "attr": {"T": {"type": "DT_FLOAT"}}}, {"name": "model_119/tf.math.add_387/Add", "op": "_FusedConv2D", "input": ["model_119/tf.math.multiply_1252/Mul", "model_119/tf.nn.convolution_322/convolution/filter", "model_119/tf.math.add_387/Add/y"], "device": "/device:CPU:0", "attr": {"num_host_args": {"i": "0"}, "data_format": {"s": "TkhXQw=="}, "filter_format": {"s": "SFdJTw=="}, "strides": {"list": {"i": ["1", "1", "1", "1"]}}, "num_args": {"i": "1"}, "fused_ops": {"list": {"s": ["Qmlhc0FkZA=="]}}, "TArgs": {"list": {"type": ["DT_FLOAT"]}}, "padding": {"s": "U0FNRQ=="}, "use_cudnn_on_gpu": {"b": true}, "leakyrelu_alpha": {"f": 0.2}, "epsilon": {"f": 0.0}, "T": {"type": "DT_FLOAT"}, "explicit_paddings": {"list": {}}, "dilations": {"list": {"i": ["1", "1", "1", "1"]}}}}, {"name": "model_119/tf.math.sigmoid_287/Sigmoid", "op": "Sigmoid", "input": ["model_119/tf.math.add_387/Add"], "attr": {"T": {"type": "DT_FLOAT"}}}, {"name": "model_119/tf.math.multiply_1256/Mul", "op": "Mul", "input": ["model_119/tf.math.add_387/Add", "model_119/tf.math.sigmoid_287/Sigmoid"], "attr": {"T": {"type": "DT_FLOAT"}}}, {"name": "model_119/tf.strided_slice_90/StridedSlice", "op": "StridedSlice", "input": ["model_119/tf.math.multiply_1256/Mul", "model_119/tf.strided_slice_90/ones_like/tensor", "model_119/tf.strided_slice_90/StridedSlice/end", "model_119/tf.strided_slice_90/ones_like"], "attr": {"shrink_axis_mask": {"i": "0"}, "new_axis_mask": {"i": "0"}, "Index": {"type": "DT_INT64"}, "begin_mask": {"i": "15"}, "T": {"type": "DT_FLOAT"}, "end_mask": {"i": "7"}, "ellipsis_mask": {"i": "0"}}}, {"name": "model_119/tf.strided_slice_91/StridedSlice", "op": "StridedSlice", "input": ["model_119/tf.math.multiply_1256/Mul", "model_119/tf.strided_slice_91/ones_like/tensor", "model_119/tf.strided_slice_91/StridedSlice/end", "model_119/tf.strided_slice_91/ones_like"], "attr": {"shrink_axis_mask": {"i": "0"}, "new_axis_mask": {"i": "0"}, "Index": {"type": "DT_INT64"}, "begin_mask": {"i": "7"}, "end_mask": {"i": "7"}, "T": {"type": "DT_FLOAT"}, "ellipsis_mask": {"i": "0"}}}, {"name": "model_119/tf.math.add_388/Add", "op": "_FusedConv2D", "input": ["model_119/tf.strided_slice_91/StridedSlice", "model_119/tf.nn.convolution_323/convolution/filter", "model_119/tf.math.add_388/Add/y"], "device": "/device:CPU:0", "attr": {"num_host_args": {"i": "0"}, "data_format": {"s": "TkhXQw=="}, "filter_format": {"s": "SFdJTw=="}, "fused_ops": {"list": {"s": ["Qmlhc0FkZA=="]}}, "num_args": {"i": "1"}, "strides": {"list": {"i": ["1", "1", "1", "1"]}}, "TArgs": {"list": {"type": ["DT_FLOAT"]}}, "padding": {"s": "U0FNRQ=="}, "use_cudnn_on_gpu": {"b": true}, "leakyrelu_alpha": {"f": 0.2}, "epsilon": {"f": 0.0}, "T": {"type": "DT_FLOAT"}, "explicit_paddings": {"list": {}}, "dilations": {"list": {"i": ["1", "1", "1", "1"]}}}}, {"name": "model_119/tf.math.sigmoid_288/Sigmoid", "op": "Sigmoid", "input": ["model_119/tf.math.add_388/Add"], "attr": {"T": {"type": "DT_FLOAT"}}}, {"name": "model_119/tf.math.multiply_1260/Mul", "op": "Mul", "input": ["model_119/tf.math.add_388/Add", "model_119/tf.math.sigmoid_288/Sigmoid"], "attr": {"T": {"type": "DT_FLOAT"}}}, {"name": "model_119/tf.math.add_389/Add", "op": "_FusedConv2D", "input": ["model_119/tf.math.multiply_1260/Mul", "model_119/tf.nn.convolution_324/convolution/filter", "model_119/tf.math.add_389/Add/y"], "device": "/device:CPU:0", "attr": {"num_host_args": {"i": "0"}, "data_format": {"s": "TkhXQw=="}, "filter_format": {"s": "SFdJTw=="}, "strides": {"list": {"i": ["1", "1", "1", "1"]}}, "num_args": {"i": "1"}, "fused_ops": {"list": {"s": ["Qmlhc0FkZA=="]}}, "TArgs": {"list": {"type": ["DT_FLOAT"]}}, "padding": {"s": "U0FNRQ=="}, "use_cudnn_on_gpu": {"b": true}, "leakyrelu_alpha": {"f": 0.2}, "epsilon": {"f": 0.0}, "T": {"type": "DT_FLOAT"}, "explicit_paddings": {"list": {}}, "dilations": {"list": {"i": ["1", "1", "1", "1"]}}}}, {"name": "model_119/tf.math.sigmoid_289/Sigmoid", "op": "Sigmoid", "input": ["model_119/tf.math.add_389/Add"], "attr": {"T": {"type": "DT_FLOAT"}}}, {"name": "model_119/tf.math.multiply_1264/Mul", "op": "Mul", "input": ["model_119/tf.math.add_389/Add", "model_119/tf.math.sigmoid_289/Sigmoid"], "attr": {"T": {"type": "DT_FLOAT"}}}, {"name": "model_119/tf.math.add_391/Add", "op": "AddV2", "input": ["model_119/tf.strided_slice_91/StridedSlice", "model_119/tf.math.multiply_1264/Mul"], "attr": {"T": {"type": "DT_FLOAT"}}}, {"name": "model_119/tf.concat_100/concat", "op": "ConcatV2", "input": ["model_119/tf.strided_slice_90/StridedSlice", "model_119/tf.strided_slice_91/StridedSlice", "model_119/tf.math.add_391/Add", "model_119/tf.concat_100/concat/axis"], "attr": {"N": {"i": "3"}, "T": {"type": "DT_FLOAT"}, "Tidx": {"type": "DT_INT32"}}}, {"name": "model_119/tf.math.add_392/Add", "op": "_FusedConv2D", "input": ["model_119/tf.concat_100/concat", "model_119/tf.nn.convolution_325/convolution/filter", "model_119/tf.math.add_392/Add/y"], "device": "/device:CPU:0", "attr": {"num_host_args": {"i": "0"}, "data_format": {"s": "TkhXQw=="}, "filter_format": {"s": "SFdJTw=="}, "fused_ops": {"list": {"s": ["Qmlhc0FkZA=="]}}, "num_args": {"i": "1"}, "strides": {"list": {"i": ["1", "1", "1", "1"]}}, "TArgs": {"list": {"type": ["DT_FLOAT"]}}, "padding": {"s": "U0FNRQ=="}, "use_cudnn_on_gpu": {"b": true}, "leakyrelu_alpha": {"f": 0.2}, "epsilon": {"f": 0.0}, "T": {"type": "DT_FLOAT"}, "explicit_paddings": {"list": {}}, "dilations": {"list": {"i": ["1", "1", "1", "1"]}}}}, {"name": "model_119/tf.math.sigmoid_290/Sigmoid", "op": "Sigmoid", "input": ["model_119/tf.math.add_392/Add"], "attr": {"T": {"type": "DT_FLOAT"}}}, {"name": "model_119/tf.math.multiply_1270/Mul", "op": "Mul", "input": ["model_119/tf.math.add_392/Add", "model_119/tf.math.sigmoid_290/Sigmoid"], "attr": {"T": {"type": "DT_FLOAT"}}}, {"name": "model_119/tf.compat.v1.pad_37/Pad", "op": "Pad", "input": ["model_119/tf.math.multiply_1270/Mul", "model_119/tf.compat.v1.pad_37/Pad/paddings"], "attr": {"Tpaddings": {"type": "DT_INT32"}, "T": {"type": "DT_FLOAT"}}}, {"name": "model_119/tf.math.add_393/Add", "op": "_FusedConv2D", "input": ["model_119/tf.compat.v1.pad_37/Pad", "model_119/tf.nn.convolution_326/convolution/filter", "model_119/tf.math.add_393/Add/y"], "device": "/device:CPU:0", "attr": {"num_host_args": {"i": "0"}, "data_format": {"s": "TkhXQw=="}, "filter_format": {"s": "SFdJTw=="}, "strides": {"list": {"i": ["1", "2", "2", "1"]}}, "num_args": {"i": "1"}, "fused_ops": {"list": {"s": ["Qmlhc0FkZA=="]}}, "TArgs": {"list": {"type": ["DT_FLOAT"]}}, "padding": {"s": "VkFMSUQ="}, "use_cudnn_on_gpu": {"b": true}, "leakyrelu_alpha": {"f": 0.2}, "epsilon": {"f": 0.0}, "T": {"type": "DT_FLOAT"}, "explicit_paddings": {"list": {}}, "dilations": {"list": {"i": ["1", "1", "1", "1"]}}}}, {"name": "model_119/tf.math.sigmoid_291/Sigmoid", "op": "Sigmoid", "input": ["model_119/tf.math.add_393/Add"], "attr": {"T": {"type": "DT_FLOAT"}}}, {"name": "model_119/tf.math.multiply_1274/Mul", "op": "Mul", "input": ["model_119/tf.math.add_393/Add", "model_119/tf.math.sigmoid_291/Sigmoid"], "attr": {"T": {"type": "DT_FLOAT"}}}, {"name": "model_119/tf.math.add_394/Add", "op": "_FusedConv2D", "input": ["model_119/tf.math.multiply_1274/Mul", "model_119/tf.nn.convolution_327/convolution/filter", "model_119/tf.math.add_394/Add/y"], "device": "/device:CPU:0", "attr": {"num_host_args": {"i": "0"}, "data_format": {"s": "TkhXQw=="}, "filter_format": {"s": "SFdJTw=="}, "fused_ops": {"list": {"s": ["Qmlhc0FkZA=="]}}, "num_args": {"i": "1"}, "strides": {"list": {"i": ["1", "1", "1", "1"]}}, "TArgs": {"list": {"type": ["DT_FLOAT"]}}, "padding": {"s": "U0FNRQ=="}, "use_cudnn_on_gpu": {"b": true}, "leakyrelu_alpha": {"f": 0.2}, "epsilon": {"f": 0.0}, "T": {"type": "DT_FLOAT"}, "explicit_paddings": {"list": {}}, "dilations": {"list": {"i": ["1", "1", "1", "1"]}}}}, {"name": "model_119/tf.math.sigmoid_292/Sigmoid", "op": "Sigmoid", "input": ["model_119/tf.math.add_394/Add"], "attr": {"T": {"type": "DT_FLOAT"}}}, {"name": "model_119/tf.math.multiply_1278/Mul", "op": "Mul", "input": ["model_119/tf.math.add_394/Add", "model_119/tf.math.sigmoid_292/Sigmoid"], "attr": {"T": {"type": "DT_FLOAT"}}}, {"name": "model_119/tf.strided_slice_92/StridedSlice", "op": "StridedSlice", "input": ["model_119/tf.math.multiply_1278/Mul", "model_119/tf.strided_slice_92/ones_like/tensor", "model_119/tf.strided_slice_92/StridedSlice/end", "model_119/tf.strided_slice_92/ones_like"], "attr": {"shrink_axis_mask": {"i": "0"}, "Index": {"type": "DT_INT64"}, "new_axis_mask": {"i": "0"}, "begin_mask": {"i": "15"}, "end_mask": {"i": "7"}, "T": {"type": "DT_FLOAT"}, "ellipsis_mask": {"i": "0"}}}, {"name": "model_119/tf.strided_slice_93/StridedSlice", "op": "StridedSlice", "input": ["model_119/tf.math.multiply_1278/Mul", "model_119/tf.strided_slice_93/ones_like/tensor", "model_119/tf.strided_slice_93/StridedSlice/end", "model_119/tf.strided_slice_93/ones_like"], "attr": {"shrink_axis_mask": {"i": "0"}, "Index": {"type": "DT_INT64"}, "new_axis_mask": {"i": "0"}, "begin_mask": {"i": "7"}, "end_mask": {"i": "7"}, "T": {"type": "DT_FLOAT"}, "ellipsis_mask": {"i": "0"}}}, {"name": "model_119/tf.math.add_395/Add", "op": "_FusedConv2D", "input": ["model_119/tf.strided_slice_93/StridedSlice", "model_119/tf.nn.convolution_328/convolution/filter", "model_119/tf.math.add_395/Add/y"], "device": "/device:CPU:0", "attr": {"num_host_args": {"i": "0"}, "data_format": {"s": "TkhXQw=="}, "filter_format": {"s": "SFdJTw=="}, "fused_ops": {"list": {"s": ["Qmlhc0FkZA=="]}}, "num_args": {"i": "1"}, "strides": {"list": {"i": ["1", "1", "1", "1"]}}, "TArgs": {"list": {"type": ["DT_FLOAT"]}}, "padding": {"s": "U0FNRQ=="}, "use_cudnn_on_gpu": {"b": true}, "leakyrelu_alpha": {"f": 0.2}, "epsilon": {"f": 0.0}, "T": {"type": "DT_FLOAT"}, "explicit_paddings": {"list": {}}, "dilations": {"list": {"i": ["1", "1", "1", "1"]}}}}, {"name": "model_119/tf.math.sigmoid_293/Sigmoid", "op": "Sigmoid", "input": ["model_119/tf.math.add_395/Add"], "attr": {"T": {"type": "DT_FLOAT"}}}, {"name": "model_119/tf.math.multiply_1282/Mul", "op": "Mul", "input": ["model_119/tf.math.add_395/Add", "model_119/tf.math.sigmoid_293/Sigmoid"], "attr": {"T": {"type": "DT_FLOAT"}}}, {"name": "model_119/tf.math.add_396/Add", "op": "_FusedConv2D", "input": ["model_119/tf.math.multiply_1282/Mul", "model_119/tf.nn.convolution_329/convolution/filter", "model_119/tf.math.add_396/Add/y"], "device": "/device:CPU:0", "attr": {"num_host_args": {"i": "0"}, "data_format": {"s": "TkhXQw=="}, "filter_format": {"s": "SFdJTw=="}, "fused_ops": {"list": {"s": ["Qmlhc0FkZA=="]}}, "num_args": {"i": "1"}, "strides": {"list": {"i": ["1", "1", "1", "1"]}}, "TArgs": {"list": {"type": ["DT_FLOAT"]}}, "padding": {"s": "U0FNRQ=="}, "use_cudnn_on_gpu": {"b": true}, "leakyrelu_alpha": {"f": 0.2}, "epsilon": {"f": 0.0}, "T": {"type": "DT_FLOAT"}, "explicit_paddings": {"list": {}}, "dilations": {"list": {"i": ["1", "1", "1", "1"]}}}}, {"name": "model_119/tf.math.sigmoid_294/Sigmoid", "op": "Sigmoid", "input": ["model_119/tf.math.add_396/Add"], "attr": {"T": {"type": "DT_FLOAT"}}}, {"name": "model_119/tf.math.multiply_1286/Mul", "op": "Mul", "input": ["model_119/tf.math.add_396/Add", "model_119/tf.math.sigmoid_294/Sigmoid"], "attr": {"T": {"type": "DT_FLOAT"}}}, {"name": "model_119/tf.math.add_398/Add", "op": "AddV2", "input": ["model_119/tf.strided_slice_93/StridedSlice", "model_119/tf.math.multiply_1286/Mul"], "attr": {"T": {"type": "DT_FLOAT"}}}, {"name": "model_119/tf.math.add_399/Add", "op": "_FusedConv2D", "input": ["model_119/tf.math.add_398/Add", "model_119/tf.nn.convolution_330/convolution/filter", "model_119/tf.math.add_399/Add/y"], "device": "/device:CPU:0", "attr": {"num_host_args": {"i": "0"}, "data_format": {"s": "TkhXQw=="}, "filter_format": {"s": "SFdJTw=="}, "fused_ops": {"list": {"s": ["Qmlhc0FkZA=="]}}, "num_args": {"i": "1"}, "strides": {"list": {"i": ["1", "1", "1", "1"]}}, "TArgs": {"list": {"type": ["DT_FLOAT"]}}, "padding": {"s": "U0FNRQ=="}, "use_cudnn_on_gpu": {"b": true}, "leakyrelu_alpha": {"f": 0.2}, "epsilon": {"f": 0.0}, "T": {"type": "DT_FLOAT"}, "explicit_paddings": {"list": {}}, "dilations": {"list": {"i": ["1", "1", "1", "1"]}}}}, {"name": "model_119/tf.math.sigmoid_295/Sigmoid", "op": "Sigmoid", "input": ["model_119/tf.math.add_399/Add"], "attr": {"T": {"type": "DT_FLOAT"}}}, {"name": "model_119/tf.math.multiply_1292/Mul", "op": "Mul", "input": ["model_119/tf.math.add_399/Add", "model_119/tf.math.sigmoid_295/Sigmoid"], "attr": {"T": {"type": "DT_FLOAT"}}}, {"name": "model_119/tf.math.add_400/Add", "op": "_FusedConv2D", "input": ["model_119/tf.math.multiply_1292/Mul", "model_119/tf.nn.convolution_331/convolution/filter", "model_119/tf.math.add_400/Add/y"], "device": "/device:CPU:0", "attr": {"num_host_args": {"i": "0"}, "data_format": {"s": "TkhXQw=="}, "filter_format": {"s": "SFdJTw=="}, "fused_ops": {"list": {"s": ["Qmlhc0FkZA=="]}}, "num_args": {"i": "1"}, "strides": {"list": {"i": ["1", "1", "1", "1"]}}, "TArgs": {"list": {"type": ["DT_FLOAT"]}}, "padding": {"s": "U0FNRQ=="}, "use_cudnn_on_gpu": {"b": true}, "leakyrelu_alpha": {"f": 0.2}, "epsilon": {"f": 0.0}, "T": {"type": "DT_FLOAT"}, "explicit_paddings": {"list": {}}, "dilations": {"list": {"i": ["1", "1", "1", "1"]}}}}, {"name": "model_119/tf.math.sigmoid_296/Sigmoid", "op": "Sigmoid", "input": ["model_119/tf.math.add_400/Add"], "attr": {"T": {"type": "DT_FLOAT"}}}, {"name": "model_119/tf.math.multiply_1296/Mul", "op": "Mul", "input": ["model_119/tf.math.add_400/Add", "model_119/tf.math.sigmoid_296/Sigmoid"], "attr": {"T": {"type": "DT_FLOAT"}}}, {"name": "model_119/tf.math.add_402/Add", "op": "AddV2", "input": ["model_119/tf.math.add_398/Add", "model_119/tf.math.multiply_1296/Mul"], "attr": {"T": {"type": "DT_FLOAT"}}}, {"name": "model_119/tf.concat_101/concat", "op": "ConcatV2", "input": ["model_119/tf.strided_slice_92/StridedSlice", "model_119/tf.strided_slice_93/StridedSlice", "model_119/tf.math.add_398/Add", "model_119/tf.math.add_402/Add", "model_119/tf.concat_101/concat/axis"], "attr": {"N": {"i": "4"}, "T": {"type": "DT_FLOAT"}, "Tidx": {"type": "DT_INT32"}}}, {"name": "model_119/tf.math.add_403/Add", "op": "_FusedConv2D", "input": ["model_119/tf.concat_101/concat", "model_119/tf.nn.convolution_332/convolution/filter", "model_119/tf.math.add_403/Add/y"], "device": "/device:CPU:0", "attr": {"num_host_args": {"i": "0"}, "data_format": {"s": "TkhXQw=="}, "filter_format": {"s": "SFdJTw=="}, "fused_ops": {"list": {"s": ["Qmlhc0FkZA=="]}}, "num_args": {"i": "1"}, "strides": {"list": {"i": ["1", "1", "1", "1"]}}, "TArgs": {"list": {"type": ["DT_FLOAT"]}}, "padding": {"s": "U0FNRQ=="}, "use_cudnn_on_gpu": {"b": true}, "leakyrelu_alpha": {"f": 0.2}, "epsilon": {"f": 0.0}, "T": {"type": "DT_FLOAT"}, "explicit_paddings": {"list": {}}, "dilations": {"list": {"i": ["1", "1", "1", "1"]}}}}, {"name": "model_119/tf.math.sigmoid_297/Sigmoid", "op": "Sigmoid", "input": ["model_119/tf.math.add_403/Add"], "attr": {"T": {"type": "DT_FLOAT"}}}, {"name": "model_119/tf.math.multiply_1302/Mul", "op": "Mul", "input": ["model_119/tf.math.add_403/Add", "model_119/tf.math.sigmoid_297/Sigmoid"], "attr": {"T": {"type": "DT_FLOAT"}}}, {"name": "model_119/tf.compat.v1.pad_38/Pad", "op": "Pad", "input": ["model_119/tf.math.multiply_1302/Mul", "model_119/tf.compat.v1.pad_38/Pad/paddings"], "attr": {"Tpaddings": {"type": "DT_INT32"}, "T": {"type": "DT_FLOAT"}}}, {"name": "model_119/tf.math.add_404/Add", "op": "_FusedConv2D", "input": ["model_119/tf.compat.v1.pad_38/Pad", "model_119/tf.nn.convolution_333/convolution/filter", "model_119/tf.math.add_404/Add/y"], "device": "/device:CPU:0", "attr": {"num_host_args": {"i": "0"}, "data_format": {"s": "TkhXQw=="}, "filter_format": {"s": "SFdJTw=="}, "fused_ops": {"list": {"s": ["Qmlhc0FkZA=="]}}, "num_args": {"i": "1"}, "strides": {"list": {"i": ["1", "2", "2", "1"]}}, "TArgs": {"list": {"type": ["DT_FLOAT"]}}, "padding": {"s": "VkFMSUQ="}, "use_cudnn_on_gpu": {"b": true}, "leakyrelu_alpha": {"f": 0.2}, "epsilon": {"f": 0.0}, "T": {"type": "DT_FLOAT"}, "explicit_paddings": {"list": {}}, "dilations": {"list": {"i": ["1", "1", "1", "1"]}}}}, {"name": "model_119/tf.math.sigmoid_298/Sigmoid", "op": "Sigmoid", "input": ["model_119/tf.math.add_404/Add"], "attr": {"T": {"type": "DT_FLOAT"}}}, {"name": "model_119/tf.math.multiply_1306/Mul", "op": "Mul", "input": ["model_119/tf.math.add_404/Add", "model_119/tf.math.sigmoid_298/Sigmoid"], "attr": {"T": {"type": "DT_FLOAT"}}}, {"name": "model_119/tf.math.add_405/Add", "op": "_FusedConv2D", "input": ["model_119/tf.math.multiply_1306/Mul", "model_119/tf.nn.convolution_334/convolution/filter", "model_119/tf.math.add_405/Add/y"], "device": "/device:CPU:0", "attr": {"num_host_args": {"i": "0"}, "data_format": {"s": "TkhXQw=="}, "filter_format": {"s": "SFdJTw=="}, "fused_ops": {"list": {"s": ["Qmlhc0FkZA=="]}}, "num_args": {"i": "1"}, "strides": {"list": {"i": ["1", "1", "1", "1"]}}, "TArgs": {"list": {"type": ["DT_FLOAT"]}}, "padding": {"s": "U0FNRQ=="}, "use_cudnn_on_gpu": {"b": true}, "leakyrelu_alpha": {"f": 0.2}, "epsilon": {"f": 0.0}, "T": {"type": "DT_FLOAT"}, "explicit_paddings": {"list": {}}, "dilations": {"list": {"i": ["1", "1", "1", "1"]}}}}, {"name": "model_119/tf.math.sigmoid_299/Sigmoid", "op": "Sigmoid", "input": ["model_119/tf.math.add_405/Add"], "attr": {"T": {"type": "DT_FLOAT"}}}, {"name": "model_119/tf.math.multiply_1310/Mul", "op": "Mul", "input": ["model_119/tf.math.add_405/Add", "model_119/tf.math.sigmoid_299/Sigmoid"], "attr": {"T": {"type": "DT_FLOAT"}}}, {"name": "model_119/tf.strided_slice_94/StridedSlice", "op": "StridedSlice", "input": ["model_119/tf.math.multiply_1310/Mul", "model_119/tf.strided_slice_94/ones_like/tensor", "model_119/tf.strided_slice_94/StridedSlice/end", "model_119/tf.strided_slice_94/ones_like"], "attr": {"shrink_axis_mask": {"i": "0"}, "new_axis_mask": {"i": "0"}, "Index": {"type": "DT_INT64"}, "begin_mask": {"i": "15"}, "end_mask": {"i": "7"}, "T": {"type": "DT_FLOAT"}, "ellipsis_mask": {"i": "0"}}}, {"name": "model_119/tf.strided_slice_95/StridedSlice", "op": "StridedSlice", "input": ["model_119/tf.math.multiply_1310/Mul", "model_119/tf.strided_slice_95/ones_like/tensor", "model_119/tf.strided_slice_95/StridedSlice/end", "model_119/tf.strided_slice_95/ones_like"], "attr": {"shrink_axis_mask": {"i": "0"}, "Index": {"type": "DT_INT64"}, "new_axis_mask": {"i": "0"}, "begin_mask": {"i": "7"}, "T": {"type": "DT_FLOAT"}, "end_mask": {"i": "7"}, "ellipsis_mask": {"i": "0"}}}, {"name": "model_119/tf.math.add_406/Add", "op": "_FusedConv2D", "input": ["model_119/tf.strided_slice_95/StridedSlice", "model_119/tf.nn.convolution_335/convolution/filter", "model_119/tf.math.add_406/Add/y"], "device": "/device:CPU:0", "attr": {"num_host_args": {"i": "0"}, "data_format": {"s": "TkhXQw=="}, "filter_format": {"s": "SFdJTw=="}, "strides": {"list": {"i": ["1", "1", "1", "1"]}}, "num_args": {"i": "1"}, "fused_ops": {"list": {"s": ["Qmlhc0FkZA=="]}}, "TArgs": {"list": {"type": ["DT_FLOAT"]}}, "padding": {"s": "U0FNRQ=="}, "use_cudnn_on_gpu": {"b": true}, "leakyrelu_alpha": {"f": 0.2}, "epsilon": {"f": 0.0}, "T": {"type": "DT_FLOAT"}, "explicit_paddings": {"list": {}}, "dilations": {"list": {"i": ["1", "1", "1", "1"]}}}}, {"name": "model_119/tf.math.sigmoid_300/Sigmoid", "op": "Sigmoid", "input": ["model_119/tf.math.add_406/Add"], "attr": {"T": {"type": "DT_FLOAT"}}}, {"name": "model_119/tf.math.multiply_1314/Mul", "op": "Mul", "input": ["model_119/tf.math.add_406/Add", "model_119/tf.math.sigmoid_300/Sigmoid"], "attr": {"T": {"type": "DT_FLOAT"}}}, {"name": "model_119/tf.math.add_407/Add", "op": "_FusedConv2D", "input": ["model_119/tf.math.multiply_1314/Mul", "model_119/tf.nn.convolution_336/convolution/filter", "model_119/tf.math.add_407/Add/y"], "device": "/device:CPU:0", "attr": {"num_host_args": {"i": "0"}, "data_format": {"s": "TkhXQw=="}, "filter_format": {"s": "SFdJTw=="}, "strides": {"list": {"i": ["1", "1", "1", "1"]}}, "num_args": {"i": "1"}, "fused_ops": {"list": {"s": ["Qmlhc0FkZA=="]}}, "TArgs": {"list": {"type": ["DT_FLOAT"]}}, "padding": {"s": "U0FNRQ=="}, "use_cudnn_on_gpu": {"b": true}, "leakyrelu_alpha": {"f": 0.2}, "epsilon": {"f": 0.0}, "T": {"type": "DT_FLOAT"}, "explicit_paddings": {"list": {}}, "dilations": {"list": {"i": ["1", "1", "1", "1"]}}}}, {"name": "model_119/tf.math.sigmoid_301/Sigmoid", "op": "Sigmoid", "input": ["model_119/tf.math.add_407/Add"], "attr": {"T": {"type": "DT_FLOAT"}}}, {"name": "model_119/tf.math.multiply_1318/Mul", "op": "Mul", "input": ["model_119/tf.math.add_407/Add", "model_119/tf.math.sigmoid_301/Sigmoid"], "attr": {"T": {"type": "DT_FLOAT"}}}, {"name": "model_119/tf.math.add_409/Add", "op": "AddV2", "input": ["model_119/tf.strided_slice_95/StridedSlice", "model_119/tf.math.multiply_1318/Mul"], "attr": {"T": {"type": "DT_FLOAT"}}}, {"name": "model_119/tf.math.add_410/Add", "op": "_FusedConv2D", "input": ["model_119/tf.math.add_409/Add", "model_119/tf.nn.convolution_337/convolution/filter", "model_119/tf.math.add_410/Add/y"], "device": "/device:CPU:0", "attr": {"num_host_args": {"i": "0"}, "data_format": {"s": "TkhXQw=="}, "filter_format": {"s": "SFdJTw=="}, "fused_ops": {"list": {"s": ["Qmlhc0FkZA=="]}}, "num_args": {"i": "1"}, "strides": {"list": {"i": ["1", "1", "1", "1"]}}, "TArgs": {"list": {"type": ["DT_FLOAT"]}}, "padding": {"s": "U0FNRQ=="}, "use_cudnn_on_gpu": {"b": true}, "leakyrelu_alpha": {"f": 0.2}, "epsilon": {"f": 0.0}, "T": {"type": "DT_FLOAT"}, "explicit_paddings": {"list": {}}, "dilations": {"list": {"i": ["1", "1", "1", "1"]}}}}, {"name": "model_119/tf.math.sigmoid_302/Sigmoid", "op": "Sigmoid", "input": ["model_119/tf.math.add_410/Add"], "attr": {"T": {"type": "DT_FLOAT"}}}, {"name": "model_119/tf.math.multiply_1324/Mul", "op": "Mul", "input": ["model_119/tf.math.add_410/Add", "model_119/tf.math.sigmoid_302/Sigmoid"], "attr": {"T": {"type": "DT_FLOAT"}}}, {"name": "model_119/tf.math.add_411/Add", "op": "_FusedConv2D", "input": ["model_119/tf.math.multiply_1324/Mul", "model_119/tf.nn.convolution_338/convolution/filter", "model_119/tf.math.add_411/Add/y"], "device": "/device:CPU:0", "attr": {"num_host_args": {"i": "0"}, "data_format": {"s": "TkhXQw=="}, "filter_format": {"s": "SFdJTw=="}, "strides": {"list": {"i": ["1", "1", "1", "1"]}}, "num_args": {"i": "1"}, "fused_ops": {"list": {"s": ["Qmlhc0FkZA=="]}}, "TArgs": {"list": {"type": ["DT_FLOAT"]}}, "padding": {"s": "U0FNRQ=="}, "use_cudnn_on_gpu": {"b": true}, "leakyrelu_alpha": {"f": 0.2}, "epsilon": {"f": 0.0}, "T": {"type": "DT_FLOAT"}, "explicit_paddings": {"list": {}}, "dilations": {"list": {"i": ["1", "1", "1", "1"]}}}}, {"name": "model_119/tf.math.sigmoid_303/Sigmoid", "op": "Sigmoid", "input": ["model_119/tf.math.add_411/Add"], "attr": {"T": {"type": "DT_FLOAT"}}}, {"name": "model_119/tf.math.multiply_1328/Mul", "op": "Mul", "input": ["model_119/tf.math.add_411/Add", "model_119/tf.math.sigmoid_303/Sigmoid"], "attr": {"T": {"type": "DT_FLOAT"}}}, {"name": "model_119/tf.math.add_413/Add", "op": "AddV2", "input": ["model_119/tf.math.add_409/Add", "model_119/tf.math.multiply_1328/Mul"], "attr": {"T": {"type": "DT_FLOAT"}}}, {"name": "model_119/tf.concat_102/concat", "op": "ConcatV2", "input": ["model_119/tf.strided_slice_94/StridedSlice", "model_119/tf.strided_slice_95/StridedSlice", "model_119/tf.math.add_409/Add", "model_119/tf.math.add_413/Add", "model_119/tf.concat_102/concat/axis"], "attr": {"N": {"i": "4"}, "Tidx": {"type": "DT_INT32"}, "T": {"type": "DT_FLOAT"}}}, {"name": "model_119/tf.math.add_414/Add", "op": "_FusedConv2D", "input": ["model_119/tf.concat_102/concat", "model_119/tf.nn.convolution_339/convolution/filter", "model_119/tf.math.add_414/Add/y"], "device": "/device:CPU:0", "attr": {"num_host_args": {"i": "0"}, "data_format": {"s": "TkhXQw=="}, "filter_format": {"s": "SFdJTw=="}, "strides": {"list": {"i": ["1", "1", "1", "1"]}}, "num_args": {"i": "1"}, "fused_ops": {"list": {"s": ["Qmlhc0FkZA=="]}}, "TArgs": {"list": {"type": ["DT_FLOAT"]}}, "padding": {"s": "U0FNRQ=="}, "use_cudnn_on_gpu": {"b": true}, "leakyrelu_alpha": {"f": 0.2}, "epsilon": {"f": 0.0}, "T": {"type": "DT_FLOAT"}, "explicit_paddings": {"list": {}}, "dilations": {"list": {"i": ["1", "1", "1", "1"]}}}}, {"name": "model_119/tf.math.sigmoid_304/Sigmoid", "op": "Sigmoid", "input": ["model_119/tf.math.add_414/Add"], "attr": {"T": {"type": "DT_FLOAT"}}}, {"name": "model_119/tf.math.multiply_1334/Mul", "op": "Mul", "input": ["model_119/tf.math.add_414/Add", "model_119/tf.math.sigmoid_304/Sigmoid"], "attr": {"T": {"type": "DT_FLOAT"}}}, {"name": "model_119/tf.compat.v1.pad_39/Pad", "op": "Pad", "input": ["model_119/tf.math.multiply_1334/Mul", "model_119/tf.compat.v1.pad_39/Pad/paddings"], "attr": {"Tpaddings": {"type": "DT_INT32"}, "T": {"type": "DT_FLOAT"}}}, {"name": "model_119/tf.math.add_415/Add", "op": "_FusedConv2D", "input": ["model_119/tf.compat.v1.pad_39/Pad", "model_119/tf.nn.convolution_340/convolution/filter", "model_119/tf.math.add_415/Add/y"], "device": "/device:CPU:0", "attr": {"num_host_args": {"i": "0"}, "data_format": {"s": "TkhXQw=="}, "filter_format": {"s": "SFdJTw=="}, "fused_ops": {"list": {"s": ["Qmlhc0FkZA=="]}}, "num_args": {"i": "1"}, "strides": {"list": {"i": ["1", "2", "2", "1"]}}, "TArgs": {"list": {"type": ["DT_FLOAT"]}}, "padding": {"s": "VkFMSUQ="}, "use_cudnn_on_gpu": {"b": true}, "leakyrelu_alpha": {"f": 0.2}, "epsilon": {"f": 0.0}, "T": {"type": "DT_FLOAT"}, "explicit_paddings": {"list": {}}, "dilations": {"list": {"i": ["1", "1", "1", "1"]}}}}, {"name": "model_119/tf.math.sigmoid_305/Sigmoid", "op": "Sigmoid", "input": ["model_119/tf.math.add_415/Add"], "attr": {"T": {"type": "DT_FLOAT"}}}, {"name": "model_119/tf.math.multiply_1338/Mul", "op": "Mul", "input": ["model_119/tf.math.add_415/Add", "model_119/tf.math.sigmoid_305/Sigmoid"], "attr": {"T": {"type": "DT_FLOAT"}}}, {"name": "model_119/tf.math.add_416/Add", "op": "_FusedConv2D", "input": ["model_119/tf.math.multiply_1338/Mul", "model_119/tf.nn.convolution_341/convolution/filter", "model_119/tf.math.add_416/Add/y"], "device": "/device:CPU:0", "attr": {"num_host_args": {"i": "0"}, "data_format": {"s": "TkhXQw=="}, "filter_format": {"s": "SFdJTw=="}, "fused_ops": {"list": {"s": ["Qmlhc0FkZA=="]}}, "num_args": {"i": "1"}, "strides": {"list": {"i": ["1", "1", "1", "1"]}}, "TArgs": {"list": {"type": ["DT_FLOAT"]}}, "padding": {"s": "U0FNRQ=="}, "use_cudnn_on_gpu": {"b": true}, "leakyrelu_alpha": {"f": 0.2}, "epsilon": {"f": 0.0}, "T": {"type": "DT_FLOAT"}, "explicit_paddings": {"list": {}}, "dilations": {"list": {"i": ["1", "1", "1", "1"]}}}}, {"name": "model_119/tf.math.sigmoid_306/Sigmoid", "op": "Sigmoid", "input": ["model_119/tf.math.add_416/Add"], "attr": {"T": {"type": "DT_FLOAT"}}}, {"name": "model_119/tf.math.multiply_1342/Mul", "op": "Mul", "input": ["model_119/tf.math.add_416/Add", "model_119/tf.math.sigmoid_306/Sigmoid"], "attr": {"T": {"type": "DT_FLOAT"}}}, {"name": "model_119/tf.strided_slice_96/StridedSlice", "op": "StridedSlice", "input": ["model_119/tf.math.multiply_1342/Mul", "model_119/tf.strided_slice_96/ones_like/tensor", "model_119/tf.strided_slice_96/StridedSlice/end", "model_119/tf.strided_slice_96/ones_like"], "attr": {"shrink_axis_mask": {"i": "0"}, "Index": {"type": "DT_INT64"}, "new_axis_mask": {"i": "0"}, "begin_mask": {"i": "15"}, "end_mask": {"i": "7"}, "T": {"type": "DT_FLOAT"}, "ellipsis_mask": {"i": "0"}}}, {"name": "model_119/tf.strided_slice_97/StridedSlice", "op": "StridedSlice", "input": ["model_119/tf.math.multiply_1342/Mul", "model_119/tf.strided_slice_97/ones_like/tensor", "model_119/tf.strided_slice_97/StridedSlice/end", "model_119/tf.strided_slice_97/ones_like"], "attr": {"shrink_axis_mask": {"i": "0"}, "Index": {"type": "DT_INT64"}, "new_axis_mask": {"i": "0"}, "begin_mask": {"i": "7"}, "T": {"type": "DT_FLOAT"}, "end_mask": {"i": "7"}, "ellipsis_mask": {"i": "0"}}}, {"name": "model_119/tf.math.add_417/Add", "op": "_FusedConv2D", "input": ["model_119/tf.strided_slice_97/StridedSlice", "model_119/tf.nn.convolution_342/convolution/filter", "model_119/tf.math.add_417/Add/y"], "device": "/device:CPU:0", "attr": {"num_host_args": {"i": "0"}, "data_format": {"s": "TkhXQw=="}, "filter_format": {"s": "SFdJTw=="}, "fused_ops": {"list": {"s": ["Qmlhc0FkZA=="]}}, "num_args": {"i": "1"}, "strides": {"list": {"i": ["1", "1", "1", "1"]}}, "TArgs": {"list": {"type": ["DT_FLOAT"]}}, "padding": {"s": "U0FNRQ=="}, "use_cudnn_on_gpu": {"b": true}, "leakyrelu_alpha": {"f": 0.2}, "epsilon": {"f": 0.0}, "T": {"type": "DT_FLOAT"}, "explicit_paddings": {"list": {}}, "dilations": {"list": {"i": ["1", "1", "1", "1"]}}}}, {"name": "model_119/tf.math.sigmoid_307/Sigmoid", "op": "Sigmoid", "input": ["model_119/tf.math.add_417/Add"], "attr": {"T": {"type": "DT_FLOAT"}}}, {"name": "model_119/tf.math.multiply_1346/Mul", "op": "Mul", "input": ["model_119/tf.math.add_417/Add", "model_119/tf.math.sigmoid_307/Sigmoid"], "attr": {"T": {"type": "DT_FLOAT"}}}, {"name": "model_119/tf.math.add_418/Add", "op": "_FusedConv2D", "input": ["model_119/tf.math.multiply_1346/Mul", "model_119/tf.nn.convolution_343/convolution/filter", "model_119/tf.math.add_418/Add/y"], "device": "/device:CPU:0", "attr": {"num_host_args": {"i": "0"}, "data_format": {"s": "TkhXQw=="}, "filter_format": {"s": "SFdJTw=="}, "strides": {"list": {"i": ["1", "1", "1", "1"]}}, "num_args": {"i": "1"}, "fused_ops": {"list": {"s": ["Qmlhc0FkZA=="]}}, "TArgs": {"list": {"type": ["DT_FLOAT"]}}, "padding": {"s": "U0FNRQ=="}, "use_cudnn_on_gpu": {"b": true}, "leakyrelu_alpha": {"f": 0.2}, "epsilon": {"f": 0.0}, "T": {"type": "DT_FLOAT"}, "explicit_paddings": {"list": {}}, "dilations": {"list": {"i": ["1", "1", "1", "1"]}}}}, {"name": "model_119/tf.math.sigmoid_308/Sigmoid", "op": "Sigmoid", "input": ["model_119/tf.math.add_418/Add"], "attr": {"T": {"type": "DT_FLOAT"}}}, {"name": "model_119/tf.math.multiply_1350/Mul", "op": "Mul", "input": ["model_119/tf.math.add_418/Add", "model_119/tf.math.sigmoid_308/Sigmoid"], "attr": {"T": {"type": "DT_FLOAT"}}}, {"name": "model_119/tf.math.add_420/Add", "op": "AddV2", "input": ["model_119/tf.strided_slice_97/StridedSlice", "model_119/tf.math.multiply_1350/Mul"], "attr": {"T": {"type": "DT_FLOAT"}}}, {"name": "model_119/tf.concat_103/concat", "op": "ConcatV2", "input": ["model_119/tf.strided_slice_96/StridedSlice", "model_119/tf.strided_slice_97/StridedSlice", "model_119/tf.math.add_420/Add", "model_119/tf.concat_103/concat/axis"], "attr": {"N": {"i": "3"}, "T": {"type": "DT_FLOAT"}, "Tidx": {"type": "DT_INT32"}}}, {"name": "model_119/tf.math.add_421/Add", "op": "_FusedConv2D", "input": ["model_119/tf.concat_103/concat", "model_119/tf.nn.convolution_344/convolution/filter", "model_119/tf.math.add_421/Add/y"], "device": "/device:CPU:0", "attr": {"num_host_args": {"i": "0"}, "data_format": {"s": "TkhXQw=="}, "filter_format": {"s": "SFdJTw=="}, "strides": {"list": {"i": ["1", "1", "1", "1"]}}, "num_args": {"i": "1"}, "fused_ops": {"list": {"s": ["Qmlhc0FkZA=="]}}, "TArgs": {"list": {"type": ["DT_FLOAT"]}}, "padding": {"s": "U0FNRQ=="}, "use_cudnn_on_gpu": {"b": true}, "leakyrelu_alpha": {"f": 0.2}, "epsilon": {"f": 0.0}, "T": {"type": "DT_FLOAT"}, "explicit_paddings": {"list": {}}, "dilations": {"list": {"i": ["1", "1", "1", "1"]}}}}, {"name": "model_119/tf.math.sigmoid_309/Sigmoid", "op": "Sigmoid", "input": ["model_119/tf.math.add_421/Add"], "attr": {"T": {"type": "DT_FLOAT"}}}, {"name": "model_119/tf.math.multiply_1356/Mul", "op": "Mul", "input": ["model_119/tf.math.add_421/Add", "model_119/tf.math.sigmoid_309/Sigmoid"], "attr": {"T": {"type": "DT_FLOAT"}}}, {"name": "model_119/tf.math.add_422/Add", "op": "_FusedConv2D", "input": ["model_119/tf.math.multiply_1356/Mul", "model_119/tf.nn.convolution_345/convolution/filter", "model_119/tf.math.add_422/Add/y"], "device": "/device:CPU:0", "attr": {"num_host_args": {"i": "0"}, "data_format": {"s": "TkhXQw=="}, "filter_format": {"s": "SFdJTw=="}, "strides": {"list": {"i": ["1", "1", "1", "1"]}}, "num_args": {"i": "1"}, "fused_ops": {"list": {"s": ["Qmlhc0FkZA=="]}}, "TArgs": {"list": {"type": ["DT_FLOAT"]}}, "padding": {"s": "U0FNRQ=="}, "use_cudnn_on_gpu": {"b": true}, "leakyrelu_alpha": {"f": 0.2}, "epsilon": {"f": 0.0}, "T": {"type": "DT_FLOAT"}, "explicit_paddings": {"list": {}}, "dilations": {"list": {"i": ["1", "1", "1", "1"]}}}}, {"name": "model_119/tf.compat.v1.nn.pool_15/max_pool", "op": "MaxPool", "input": ["model_119/tf.math.add_422/Add"], "attr": {"ksize": {"list": {"i": ["1", "5", "5", "1"]}}, "data_format": {"s": "TkhXQw=="}, "T": {"type": "DT_FLOAT"}, "explicit_paddings": {"list": {}}, "padding": {"s": "U0FNRQ=="}, "strides": {"list": {"i": ["1", "1", "1", "1"]}}}}, {"name": "model_119/tf.compat.v1.nn.pool_16/max_pool", "op": "MaxPool", "input": ["model_119/tf.compat.v1.nn.pool_15/max_pool"], "attr": {"padding": {"s": "U0FNRQ=="}, "data_format": {"s": "TkhXQw=="}, "T": {"type": "DT_FLOAT"}, "explicit_paddings": {"list": {}}, "ksize": {"list": {"i": ["1", "5", "5", "1"]}}, "strides": {"list": {"i": ["1", "1", "1", "1"]}}}}, {"name": "model_119/tf.compat.v1.nn.pool_17/max_pool", "op": "MaxPool", "input": ["model_119/tf.compat.v1.nn.pool_16/max_pool"], "attr": {"padding": {"s": "U0FNRQ=="}, "data_format": {"s": "TkhXQw=="}, "T": {"type": "DT_FLOAT"}, "explicit_paddings": {"list": {}}, "ksize": {"list": {"i": ["1", "5", "5", "1"]}}, "strides": {"list": {"i": ["1", "1", "1", "1"]}}}}, {"name": "model_119/tf.concat_104/concat", "op": "ConcatV2", "input": ["model_119/tf.math.add_422/Add", "model_119/tf.compat.v1.nn.pool_15/max_pool", "model_119/tf.compat.v1.nn.pool_16/max_pool", "model_119/tf.compat.v1.nn.pool_17/max_pool", "model_119/tf.concat_104/concat/axis"], "attr": {"N": {"i": "4"}, "Tidx": {"type": "DT_INT32"}, "T": {"type": "DT_FLOAT"}}}, {"name": "model_119/tf.math.add_423/Add", "op": "_FusedConv2D", "input": ["model_119/tf.concat_104/concat", "model_119/tf.nn.convolution_346/convolution/filter", "model_119/tf.math.add_423/Add/y"], "device": "/device:CPU:0", "attr": {"num_host_args": {"i": "0"}, "data_format": {"s": "TkhXQw=="}, "filter_format": {"s": "SFdJTw=="}, "strides": {"list": {"i": ["1", "1", "1", "1"]}}, "num_args": {"i": "1"}, "fused_ops": {"list": {"s": ["Qmlhc0FkZA=="]}}, "TArgs": {"list": {"type": ["DT_FLOAT"]}}, "padding": {"s": "U0FNRQ=="}, "use_cudnn_on_gpu": {"b": true}, "leakyrelu_alpha": {"f": 0.2}, "epsilon": {"f": 0.0}, "T": {"type": "DT_FLOAT"}, "explicit_paddings": {"list": {}}, "dilations": {"list": {"i": ["1", "1", "1", "1"]}}}}, {"name": "model_119/tf.math.sigmoid_310/Sigmoid", "op": "Sigmoid", "input": ["model_119/tf.math.add_423/Add"], "attr": {"T": {"type": "DT_FLOAT"}}}, {"name": "model_119/tf.math.multiply_1360/Mul", "op": "Mul", "input": ["model_119/tf.math.add_423/Add", "model_119/tf.math.sigmoid_310/Sigmoid"], "attr": {"T": {"type": "DT_FLOAT"}}}, {"name": "model_119/tf.image.resize_10/resize/ResizeNearestNeighbor", "op": "ResizeNearestNeighbor", "input": ["model_119/tf.math.multiply_1360/Mul", "model_119/tf.image.resize_10/resize/size"], "attr": {"T": {"type": "DT_FLOAT"}, "align_corners": {"b": false}, "half_pixel_centers": {"b": true}}}, {"name": "model_119/tf.concat_105/concat", "op": "ConcatV2", "input": ["model_119/tf.image.resize_10/resize/ResizeNearestNeighbor", "model_119/tf.math.multiply_1334/Mul", "model_119/tf.concat_105/concat/axis"], "attr": {"N": {"i": "2"}, "T": {"type": "DT_FLOAT"}, "Tidx": {"type": "DT_INT32"}}}, {"name": "model_119/tf.math.add_424/Add", "op": "_FusedConv2D", "input": ["model_119/tf.concat_105/concat", "model_119/tf.nn.convolution_347/convolution/filter", "model_119/tf.math.add_424/Add/y"], "device": "/device:CPU:0", "attr": {"num_host_args": {"i": "0"}, "data_format": {"s": "TkhXQw=="}, "filter_format": {"s": "SFdJTw=="}, "fused_ops": {"list": {"s": ["Qmlhc0FkZA=="]}}, "num_args": {"i": "1"}, "strides": {"list": {"i": ["1", "1", "1", "1"]}}, "TArgs": {"list": {"type": ["DT_FLOAT"]}}, "padding": {"s": "U0FNRQ=="}, "use_cudnn_on_gpu": {"b": true}, "leakyrelu_alpha": {"f": 0.2}, "epsilon": {"f": 0.0}, "T": {"type": "DT_FLOAT"}, "explicit_paddings": {"list": {}}, "dilations": {"list": {"i": ["1", "1", "1", "1"]}}}}, {"name": "model_119/tf.math.sigmoid_311/Sigmoid", "op": "Sigmoid", "input": ["model_119/tf.math.add_424/Add"], "attr": {"T": {"type": "DT_FLOAT"}}}, {"name": "model_119/tf.math.multiply_1364/Mul", "op": "Mul", "input": ["model_119/tf.math.add_424/Add", "model_119/tf.math.sigmoid_311/Sigmoid"], "attr": {"T": {"type": "DT_FLOAT"}}}, {"name": "model_119/tf.strided_slice_98/StridedSlice", "op": "StridedSlice", "input": ["model_119/tf.math.multiply_1364/Mul", "model_119/tf.strided_slice_98/ones_like/tensor", "model_119/tf.strided_slice_98/StridedSlice/end", "model_119/tf.strided_slice_98/ones_like"], "attr": {"shrink_axis_mask": {"i": "0"}, "new_axis_mask": {"i": "0"}, "Index": {"type": "DT_INT64"}, "begin_mask": {"i": "15"}, "T": {"type": "DT_FLOAT"}, "end_mask": {"i": "7"}, "ellipsis_mask": {"i": "0"}}}, {"name": "model_119/tf.strided_slice_99/StridedSlice", "op": "StridedSlice", "input": ["model_119/tf.math.multiply_1364/Mul", "model_119/tf.strided_slice_99/ones_like/tensor", "model_119/tf.strided_slice_99/StridedSlice/end", "model_119/tf.strided_slice_99/ones_like"], "attr": {"shrink_axis_mask": {"i": "0"}, "new_axis_mask": {"i": "0"}, "Index": {"type": "DT_INT64"}, "begin_mask": {"i": "7"}, "end_mask": {"i": "7"}, "T": {"type": "DT_FLOAT"}, "ellipsis_mask": {"i": "0"}}}, {"name": "model_119/tf.math.add_425/Add", "op": "_FusedConv2D", "input": ["model_119/tf.strided_slice_99/StridedSlice", "model_119/tf.nn.convolution_348/convolution/filter", "model_119/tf.math.add_425/Add/y"], "device": "/device:CPU:0", "attr": {"num_host_args": {"i": "0"}, "data_format": {"s": "TkhXQw=="}, "filter_format": {"s": "SFdJTw=="}, "fused_ops": {"list": {"s": ["Qmlhc0FkZA=="]}}, "num_args": {"i": "1"}, "strides": {"list": {"i": ["1", "1", "1", "1"]}}, "TArgs": {"list": {"type": ["DT_FLOAT"]}}, "padding": {"s": "U0FNRQ=="}, "use_cudnn_on_gpu": {"b": true}, "leakyrelu_alpha": {"f": 0.2}, "epsilon": {"f": 0.0}, "T": {"type": "DT_FLOAT"}, "explicit_paddings": {"list": {}}, "dilations": {"list": {"i": ["1", "1", "1", "1"]}}}}, {"name": "model_119/tf.math.sigmoid_312/Sigmoid", "op": "Sigmoid", "input": ["model_119/tf.math.add_425/Add"], "attr": {"T": {"type": "DT_FLOAT"}}}, {"name": "model_119/tf.math.multiply_1368/Mul", "op": "Mul", "input": ["model_119/tf.math.add_425/Add", "model_119/tf.math.sigmoid_312/Sigmoid"], "attr": {"T": {"type": "DT_FLOAT"}}}, {"name": "model_119/tf.math.add_426/Add", "op": "_FusedConv2D", "input": ["model_119/tf.math.multiply_1368/Mul", "model_119/tf.nn.convolution_349/convolution/filter", "model_119/tf.math.add_426/Add/y"], "device": "/device:CPU:0", "attr": {"num_host_args": {"i": "0"}, "data_format": {"s": "TkhXQw=="}, "filter_format": {"s": "SFdJTw=="}, "fused_ops": {"list": {"s": ["Qmlhc0FkZA=="]}}, "num_args": {"i": "1"}, "strides": {"list": {"i": ["1", "1", "1", "1"]}}, "TArgs": {"list": {"type": ["DT_FLOAT"]}}, "padding": {"s": "U0FNRQ=="}, "use_cudnn_on_gpu": {"b": true}, "leakyrelu_alpha": {"f": 0.2}, "epsilon": {"f": 0.0}, "T": {"type": "DT_FLOAT"}, "explicit_paddings": {"list": {}}, "dilations": {"list": {"i": ["1", "1", "1", "1"]}}}}, {"name": "model_119/tf.math.sigmoid_313/Sigmoid", "op": "Sigmoid", "input": ["model_119/tf.math.add_426/Add"], "attr": {"T": {"type": "DT_FLOAT"}}}, {"name": "model_119/tf.math.multiply_1372/Mul", "op": "Mul", "input": ["model_119/tf.math.add_426/Add", "model_119/tf.math.sigmoid_313/Sigmoid"], "attr": {"T": {"type": "DT_FLOAT"}}}, {"name": "model_119/tf.concat_106/concat", "op": "ConcatV2", "input": ["model_119/tf.strided_slice_98/StridedSlice", "model_119/tf.strided_slice_99/StridedSlice", "model_119/tf.math.multiply_1372/Mul", "model_119/tf.concat_106/concat/axis"], "attr": {"N": {"i": "3"}, "T": {"type": "DT_FLOAT"}, "Tidx": {"type": "DT_INT32"}}}, {"name": "model_119/tf.math.add_427/Add", "op": "_FusedConv2D", "input": ["model_119/tf.concat_106/concat", "model_119/tf.nn.convolution_350/convolution/filter", "model_119/tf.math.add_427/Add/y"], "device": "/device:CPU:0", "attr": {"num_host_args": {"i": "0"}, "data_format": {"s": "TkhXQw=="}, "filter_format": {"s": "SFdJTw=="}, "strides": {"list": {"i": ["1", "1", "1", "1"]}}, "num_args": {"i": "1"}, "fused_ops": {"list": {"s": ["Qmlhc0FkZA=="]}}, "TArgs": {"list": {"type": ["DT_FLOAT"]}}, "padding": {"s": "U0FNRQ=="}, "use_cudnn_on_gpu": {"b": true}, "leakyrelu_alpha": {"f": 0.2}, "epsilon": {"f": 0.0}, "T": {"type": "DT_FLOAT"}, "explicit_paddings": {"list": {}}, "dilations": {"list": {"i": ["1", "1", "1", "1"]}}}}, {"name": "model_119/tf.math.sigmoid_314/Sigmoid", "op": "Sigmoid", "input": ["model_119/tf.math.add_427/Add"], "attr": {"T": {"type": "DT_FLOAT"}}}, {"name": "model_119/tf.math.multiply_1376/Mul", "op": "Mul", "input": ["model_119/tf.math.add_427/Add", "model_119/tf.math.sigmoid_314/Sigmoid"], "attr": {"T": {"type": "DT_FLOAT"}}}, {"name": "model_119/tf.image.resize_11/resize/ResizeNearestNeighbor", "op": "ResizeNearestNeighbor", "input": ["model_119/tf.math.multiply_1376/Mul", "model_119/tf.image.resize_11/resize/size"], "attr": {"T": {"type": "DT_FLOAT"}, "align_corners": {"b": false}, "half_pixel_centers": {"b": true}}}, {"name": "model_119/tf.concat_107/concat", "op": "ConcatV2", "input": ["model_119/tf.image.resize_11/resize/ResizeNearestNeighbor", "model_119/tf.math.multiply_1302/Mul", "model_119/tf.concat_107/concat/axis"], "attr": {"N": {"i": "2"}, "T": {"type": "DT_FLOAT"}, "Tidx": {"type": "DT_INT32"}}}, {"name": "model_119/tf.math.add_428/Add", "op": "_FusedConv2D", "input": ["model_119/tf.concat_107/concat", "model_119/tf.nn.convolution_351/convolution/filter", "model_119/tf.math.add_428/Add/y"], "device": "/device:CPU:0", "attr": {"num_host_args": {"i": "0"}, "data_format": {"s": "TkhXQw=="}, "filter_format": {"s": "SFdJTw=="}, "fused_ops": {"list": {"s": ["Qmlhc0FkZA=="]}}, "num_args": {"i": "1"}, "strides": {"list": {"i": ["1", "1", "1", "1"]}}, "TArgs": {"list": {"type": ["DT_FLOAT"]}}, "padding": {"s": "U0FNRQ=="}, "use_cudnn_on_gpu": {"b": true}, "leakyrelu_alpha": {"f": 0.2}, "epsilon": {"f": 0.0}, "T": {"type": "DT_FLOAT"}, "explicit_paddings": {"list": {}}, "dilations": {"list": {"i": ["1", "1", "1", "1"]}}}}, {"name": "model_119/tf.math.sigmoid_315/Sigmoid", "op": "Sigmoid", "input": ["model_119/tf.math.add_428/Add"], "attr": {"T": {"type": "DT_FLOAT"}}}, {"name": "model_119/tf.math.multiply_1380/Mul", "op": "Mul", "input": ["model_119/tf.math.add_428/Add", "model_119/tf.math.sigmoid_315/Sigmoid"], "attr": {"T": {"type": "DT_FLOAT"}}}, {"name": "model_119/tf.strided_slice_100/StridedSlice", "op": "StridedSlice", "input": ["model_119/tf.math.multiply_1380/Mul", "model_119/tf.strided_slice_100/ones_like/tensor", "model_119/tf.strided_slice_100/StridedSlice/end", "model_119/tf.strided_slice_100/ones_like"], "attr": {"shrink_axis_mask": {"i": "0"}, "new_axis_mask": {"i": "0"}, "Index": {"type": "DT_INT64"}, "begin_mask": {"i": "15"}, "end_mask": {"i": "7"}, "T": {"type": "DT_FLOAT"}, "ellipsis_mask": {"i": "0"}}}, {"name": "model_119/tf.strided_slice_101/StridedSlice", "op": "StridedSlice", "input": ["model_119/tf.math.multiply_1380/Mul", "model_119/tf.strided_slice_101/ones_like/tensor", "model_119/tf.strided_slice_101/StridedSlice/end", "model_119/tf.strided_slice_101/ones_like"], "attr": {"shrink_axis_mask": {"i": "0"}, "new_axis_mask": {"i": "0"}, "Index": {"type": "DT_INT64"}, "begin_mask": {"i": "7"}, "end_mask": {"i": "7"}, "T": {"type": "DT_FLOAT"}, "ellipsis_mask": {"i": "0"}}}, {"name": "model_119/tf.math.add_429/Add", "op": "_FusedConv2D", "input": ["model_119/tf.strided_slice_101/StridedSlice", "model_119/tf.nn.convolution_352/convolution/filter", "model_119/tf.math.add_429/Add/y"], "device": "/device:CPU:0", "attr": {"num_host_args": {"i": "0"}, "data_format": {"s": "TkhXQw=="}, "filter_format": {"s": "SFdJTw=="}, "fused_ops": {"list": {"s": ["Qmlhc0FkZA=="]}}, "num_args": {"i": "1"}, "strides": {"list": {"i": ["1", "1", "1", "1"]}}, "TArgs": {"list": {"type": ["DT_FLOAT"]}}, "padding": {"s": "U0FNRQ=="}, "use_cudnn_on_gpu": {"b": true}, "leakyrelu_alpha": {"f": 0.2}, "epsilon": {"f": 0.0}, "T": {"type": "DT_FLOAT"}, "explicit_paddings": {"list": {}}, "dilations": {"list": {"i": ["1", "1", "1", "1"]}}}}, {"name": "model_119/tf.math.sigmoid_316/Sigmoid", "op": "Sigmoid", "input": ["model_119/tf.math.add_429/Add"], "attr": {"T": {"type": "DT_FLOAT"}}}, {"name": "model_119/tf.math.multiply_1384/Mul", "op": "Mul", "input": ["model_119/tf.math.add_429/Add", "model_119/tf.math.sigmoid_316/Sigmoid"], "attr": {"T": {"type": "DT_FLOAT"}}}, {"name": "model_119/tf.math.add_430/Add", "op": "_FusedConv2D", "input": ["model_119/tf.math.multiply_1384/Mul", "model_119/tf.nn.convolution_353/convolution/filter", "model_119/tf.math.add_430/Add/y"], "device": "/device:CPU:0", "attr": {"num_host_args": {"i": "0"}, "data_format": {"s": "TkhXQw=="}, "filter_format": {"s": "SFdJTw=="}, "strides": {"list": {"i": ["1", "1", "1", "1"]}}, "num_args": {"i": "1"}, "fused_ops": {"list": {"s": ["Qmlhc0FkZA=="]}}, "TArgs": {"list": {"type": ["DT_FLOAT"]}}, "padding": {"s": "U0FNRQ=="}, "use_cudnn_on_gpu": {"b": true}, "leakyrelu_alpha": {"f": 0.2}, "epsilon": {"f": 0.0}, "T": {"type": "DT_FLOAT"}, "explicit_paddings": {"list": {}}, "dilations": {"list": {"i": ["1", "1", "1", "1"]}}}}, {"name": "model_119/tf.math.sigmoid_317/Sigmoid", "op": "Sigmoid", "input": ["model_119/tf.math.add_430/Add"], "attr": {"T": {"type": "DT_FLOAT"}}}, {"name": "model_119/tf.math.multiply_1388/Mul", "op": "Mul", "input": ["model_119/tf.math.add_430/Add", "model_119/tf.math.sigmoid_317/Sigmoid"], "attr": {"T": {"type": "DT_FLOAT"}}}, {"name": "model_119/tf.concat_108/concat", "op": "ConcatV2", "input": ["model_119/tf.strided_slice_100/StridedSlice", "model_119/tf.strided_slice_101/StridedSlice", "model_119/tf.math.multiply_1388/Mul", "model_119/tf.concat_108/concat/axis"], "attr": {"N": {"i": "3"}, "T": {"type": "DT_FLOAT"}, "Tidx": {"type": "DT_INT32"}}}, {"name": "model_119/tf.math.add_431/Add", "op": "_FusedConv2D", "input": ["model_119/tf.concat_108/concat", "model_119/tf.nn.convolution_354/convolution/filter", "model_119/tf.math.add_431/Add/y"], "device": "/device:CPU:0", "attr": {"num_host_args": {"i": "0"}, "data_format": {"s": "TkhXQw=="}, "filter_format": {"s": "SFdJTw=="}, "fused_ops": {"list": {"s": ["Qmlhc0FkZA=="]}}, "num_args": {"i": "1"}, "strides": {"list": {"i": ["1", "1", "1", "1"]}}, "TArgs": {"list": {"type": ["DT_FLOAT"]}}, "padding": {"s": "U0FNRQ=="}, "use_cudnn_on_gpu": {"b": true}, "leakyrelu_alpha": {"f": 0.2}, "epsilon": {"f": 0.0}, "T": {"type": "DT_FLOAT"}, "explicit_paddings": {"list": {}}, "dilations": {"list": {"i": ["1", "1", "1", "1"]}}}}, {"name": "model_119/tf.math.sigmoid_318/Sigmoid", "op": "Sigmoid", "input": ["model_119/tf.math.add_431/Add"], "attr": {"T": {"type": "DT_FLOAT"}}}, {"name": "model_119/tf.math.multiply_1392/Mul", "op": "Mul", "input": ["model_119/tf.math.add_431/Add", "model_119/tf.math.sigmoid_318/Sigmoid"], "attr": {"T": {"type": "DT_FLOAT"}}}, {"name": "model_119/tf.math.add_433/Add", "op": "_FusedConv2D", "input": ["model_119/tf.math.multiply_1392/Mul", "model_119/tf.nn.convolution_356/convolution/filter", "model_119/tf.math.add_433/Add/y"], "device": "/device:CPU:0", "attr": {"num_host_args": {"i": "0"}, "data_format": {"s": "TkhXQw=="}, "filter_format": {"s": "SFdJTw=="}, "strides": {"list": {"i": ["1", "1", "1", "1"]}}, "num_args": {"i": "1"}, "fused_ops": {"list": {"s": ["Qmlhc0FkZA=="]}}, "TArgs": {"list": {"type": ["DT_FLOAT"]}}, "padding": {"s": "U0FNRQ=="}, "use_cudnn_on_gpu": {"b": true}, "leakyrelu_alpha": {"f": 0.2}, "epsilon": {"f": 0.0}, "T": {"type": "DT_FLOAT"}, "explicit_paddings": {"list": {}}, "dilations": {"list": {"i": ["1", "1", "1", "1"]}}}}, {"name": "model_119/tf.math.add_434/Add", "op": "_FusedConv2D", "input": ["model_119/tf.math.multiply_1392/Mul", "model_119/tf.nn.convolution_357/convolution/filter", "model_119/tf.math.add_434/Add/y"], "device": "/device:CPU:0", "attr": {"num_host_args": {"i": "0"}, "data_format": {"s": "TkhXQw=="}, "filter_format": {"s": "SFdJTw=="}, "fused_ops": {"list": {"s": ["Qmlhc0FkZA=="]}}, "num_args": {"i": "1"}, "strides": {"list": {"i": ["1", "1", "1", "1"]}}, "TArgs": {"list": {"type": ["DT_FLOAT"]}}, "padding": {"s": "U0FNRQ=="}, "use_cudnn_on_gpu": {"b": true}, "leakyrelu_alpha": {"f": 0.2}, "epsilon": {"f": 0.0}, "T": {"type": "DT_FLOAT"}, "explicit_paddings": {"list": {}}, "dilations": {"list": {"i": ["1", "1", "1", "1"]}}}}, {"name": "model_119/tf.compat.v1.pad_40/Pad", "op": "Pad", "input": ["model_119/tf.math.multiply_1392/Mul", "model_119/tf.compat.v1.pad_40/Pad/paddings"], "attr": {"Tpaddings": {"type": "DT_INT32"}, "T": {"type": "DT_FLOAT"}}}, {"name": "model_119/tf.math.sigmoid_320/Sigmoid", "op": "Sigmoid", "input": ["model_119/tf.math.add_433/Add"], "attr": {"T": {"type": "DT_FLOAT"}}}, {"name": "model_119/tf.math.sigmoid_321/Sigmoid", "op": "Sigmoid", "input": ["model_119/tf.math.add_434/Add"], "attr": {"T": {"type": "DT_FLOAT"}}}, {"name": "model_119/tf.math.add_432/Add", "op": "_FusedConv2D", "input": ["model_119/tf.compat.v1.pad_40/Pad", "model_119/tf.nn.convolution_355/convolution/filter", "model_119/tf.math.add_432/Add/y"], "device": "/device:CPU:0", "attr": {"num_host_args": {"i": "0"}, "data_format": {"s": "TkhXQw=="}, "filter_format": {"s": "SFdJTw=="}, "fused_ops": {"list": {"s": ["Qmlhc0FkZA=="]}}, "num_args": {"i": "1"}, "strides": {"list": {"i": ["1", "2", "2", "1"]}}, "TArgs": {"list": {"type": ["DT_FLOAT"]}}, "padding": {"s": "VkFMSUQ="}, "use_cudnn_on_gpu": {"b": true}, "leakyrelu_alpha": {"f": 0.2}, "epsilon": {"f": 0.0}, "T": {"type": "DT_FLOAT"}, "explicit_paddings": {"list": {}}, "dilations": {"list": {"i": ["1", "1", "1", "1"]}}}}, {"name": "model_119/tf.math.multiply_1400/Mul", "op": "Mul", "input": ["model_119/tf.math.add_433/Add", "model_119/tf.math.sigmoid_320/Sigmoid"], "attr": {"T": {"type": "DT_FLOAT"}}}, {"name": "model_119/tf.math.multiply_1404/Mul", "op": "Mul", "input": ["model_119/tf.math.add_434/Add", "model_119/tf.math.sigmoid_321/Sigmoid"], "attr": {"T": {"type": "DT_FLOAT"}}}, {"name": "model_119/tf.math.sigmoid_319/Sigmoid", "op": "Sigmoid", "input": ["model_119/tf.math.add_432/Add"], "attr": {"T": {"type": "DT_FLOAT"}}}, {"name": "model_119/tf.math.add_435/Add", "op": "_FusedConv2D", "input": ["model_119/tf.math.multiply_1400/Mul", "model_119/tf.nn.convolution_358/convolution/filter", "model_119/tf.math.add_435/Add/y"], "device": "/device:CPU:0", "attr": {"num_host_args": {"i": "0"}, "data_format": {"s": "TkhXQw=="}, "filter_format": {"s": "SFdJTw=="}, "fused_ops": {"list": {"s": ["Qmlhc0FkZA=="]}}, "num_args": {"i": "1"}, "strides": {"list": {"i": ["1", "1", "1", "1"]}}, "TArgs": {"list": {"type": ["DT_FLOAT"]}}, "padding": {"s": "U0FNRQ=="}, "use_cudnn_on_gpu": {"b": true}, "leakyrelu_alpha": {"f": 0.2}, "epsilon": {"f": 0.0}, "T": {"type": "DT_FLOAT"}, "explicit_paddings": {"list": {}}, "dilations": {"list": {"i": ["1", "1", "1", "1"]}}}}, {"name": "model_119/tf.math.add_436/Add", "op": "_FusedConv2D", "input": ["model_119/tf.math.multiply_1404/Mul", "model_119/tf.nn.convolution_359/convolution/filter", "model_119/tf.math.add_436/Add/y"], "device": "/device:CPU:0", "attr": {"num_host_args": {"i": "0"}, "data_format": {"s": "TkhXQw=="}, "filter_format": {"s": "SFdJTw=="}, "fused_ops": {"list": {"s": ["Qmlhc0FkZA=="]}}, "num_args": {"i": "1"}, "strides": {"list": {"i": ["1", "1", "1", "1"]}}, "TArgs": {"list": {"type": ["DT_FLOAT"]}}, "padding": {"s": "U0FNRQ=="}, "use_cudnn_on_gpu": {"b": true}, "leakyrelu_alpha": {"f": 0.2}, "epsilon": {"f": 0.0}, "T": {"type": "DT_FLOAT"}, "explicit_paddings": {"list": {}}, "dilations": {"list": {"i": ["1", "1", "1", "1"]}}}}, {"name": "model_119/tf.math.multiply_1396/Mul", "op": "Mul", "input": ["model_119/tf.math.add_432/Add", "model_119/tf.math.sigmoid_319/Sigmoid"], "attr": {"T": {"type": "DT_FLOAT"}}}, {"name": "model_119/tf.math.sigmoid_322/Sigmoid", "op": "Sigmoid", "input": ["model_119/tf.math.add_435/Add"], "attr": {"T": {"type": "DT_FLOAT"}}}, {"name": "model_119/tf.math.sigmoid_323/Sigmoid", "op": "Sigmoid", "input": ["model_119/tf.math.add_436/Add"], "attr": {"T": {"type": "DT_FLOAT"}}}, {"name": "model_119/tf.concat_109/concat", "op": "ConcatV2", "input": ["model_119/tf.math.multiply_1396/Mul", "model_119/tf.math.multiply_1376/Mul", "model_119/tf.concat_109/concat/axis"], "attr": {"N": {"i": "2"}, "T": {"type": "DT_FLOAT"}, "Tidx": {"type": "DT_INT32"}}}, {"name": "model_119/tf.math.multiply_1408/Mul", "op": "Mul", "input": ["model_119/tf.math.add_435/Add", "model_119/tf.math.sigmoid_322/Sigmoid"], "attr": {"T": {"type": "DT_FLOAT"}}}, {"name": "model_119/tf.math.multiply_1412/Mul", "op": "Mul", "input": ["model_119/tf.math.add_436/Add", "model_119/tf.math.sigmoid_323/Sigmoid"], "attr": {"T": {"type": "DT_FLOAT"}}}, {"name": "model_119/tf.math.add_437/Add", "op": "_FusedConv2D", "input": ["model_119/tf.concat_109/concat", "model_119/tf.nn.convolution_360/convolution/filter", "model_119/tf.math.add_437/Add/y"], "device": "/device:CPU:0", "attr": {"num_host_args": {"i": "0"}, "data_format": {"s": "TkhXQw=="}, "filter_format": {"s": "SFdJTw=="}, "fused_ops": {"list": {"s": ["Qmlhc0FkZA=="]}}, "num_args": {"i": "1"}, "strides": {"list": {"i": ["1", "1", "1", "1"]}}, "TArgs": {"list": {"type": ["DT_FLOAT"]}}, "padding": {"s": "U0FNRQ=="}, "use_cudnn_on_gpu": {"b": true}, "leakyrelu_alpha": {"f": 0.2}, "epsilon": {"f": 0.0}, "T": {"type": "DT_FLOAT"}, "explicit_paddings": {"list": {}}, "dilations": {"list": {"i": ["1", "1", "1", "1"]}}}}, {"name": "model_119/tf.math.add_438/Add", "op": "_FusedConv2D", "input": ["model_119/tf.math.multiply_1408/Mul", "model_119/tf.nn.convolution_361/convolution/filter", "model_119/tf.math.add_438/Add/y"], "device": "/device:CPU:0", "attr": {"num_host_args": {"i": "0"}, "data_format": {"s": "TkhXQw=="}, "filter_format": {"s": "SFdJTw=="}, "strides": {"list": {"i": ["1", "1", "1", "1"]}}, "num_args": {"i": "1"}, "fused_ops": {"list": {"s": ["Qmlhc0FkZA=="]}}, "TArgs": {"list": {"type": ["DT_FLOAT"]}}, "padding": {"s": "U0FNRQ=="}, "use_cudnn_on_gpu": {"b": true}, "leakyrelu_alpha": {"f": 0.2}, "epsilon": {"f": 0.0}, "T": {"type": "DT_FLOAT"}, "explicit_paddings": {"list": {}}, "dilations": {"list": {"i": ["1", "1", "1", "1"]}}}}, {"name": "model_119/tf.math.add_439/Add", "op": "_FusedConv2D", "input": ["model_119/tf.math.multiply_1412/Mul", "model_119/tf.nn.convolution_362/convolution/filter", "model_119/tf.math.add_439/Add/y"], "device": "/device:CPU:0", "attr": {"num_host_args": {"i": "0"}, "data_format": {"s": "TkhXQw=="}, "filter_format": {"s": "SFdJTw=="}, "strides": {"list": {"i": ["1", "1", "1", "1"]}}, "num_args": {"i": "1"}, "fused_ops": {"list": {"s": ["Qmlhc0FkZA=="]}}, "TArgs": {"list": {"type": ["DT_FLOAT"]}}, "padding": {"s": "U0FNRQ=="}, "use_cudnn_on_gpu": {"b": true}, "leakyrelu_alpha": {"f": 0.2}, "epsilon": {"f": 0.0}, "T": {"type": "DT_FLOAT"}, "explicit_paddings": {"list": {}}, "dilations": {"list": {"i": ["1", "1", "1", "1"]}}}}, {"name": "model_119/tf.math.sigmoid_324/Sigmoid", "op": "Sigmoid", "input": ["model_119/tf.math.add_437/Add"], "attr": {"T": {"type": "DT_FLOAT"}}}, {"name": "model_119/tf.compat.v1.transpose_573/transpose", "op": "Transpose", "input": ["model_119/tf.math.add_438/Add", "model_119/tf.compat.v1.transpose_573/transpose/perm"], "attr": {"Tperm": {"type": "DT_INT32"}, "T": {"type": "DT_FLOAT"}}}, {"name": "model_119/tf.compat.v1.transpose_578/transpose", "op": "Transpose", "input": ["model_119/tf.math.add_439/Add", "model_119/tf.compat.v1.transpose_578/transpose/perm"], "attr": {"Tperm": {"type": "DT_INT32"}, "T": {"type": "DT_FLOAT"}}}, {"name": "model_119/tf.math.multiply_1416/Mul", "op": "Mul", "input": ["model_119/tf.math.add_437/Add", "model_119/tf.math.sigmoid_324/Sigmoid"], "attr": {"T": {"type": "DT_FLOAT"}}}, {"name": "model_119/tf.reshape_122/Reshape", "op": "Reshape", "input": ["model_119/tf.compat.v1.transpose_573/transpose", "model_119/tf.reshape_122/Reshape/shape"], "attr": {"T": {"type": "DT_FLOAT"}, "Tshape": {"type": "DT_INT32"}}}, {"name": "model_119/tf.reshape_125/Reshape", "op": "Reshape", "input": ["model_119/tf.compat.v1.transpose_578/transpose", "model_119/tf.reshape_125/Reshape/shape"], "attr": {"T": {"type": "DT_FLOAT"}, "Tshape": {"type": "DT_INT32"}}}, {"name": "model_119/tf.strided_slice_102/StridedSlice", "op": "StridedSlice", "input": ["model_119/tf.math.multiply_1416/Mul", "model_119/tf.strided_slice_102/ones_like/tensor", "model_119/tf.strided_slice_102/StridedSlice/end", "model_119/tf.strided_slice_102/ones_like"], "attr": {"shrink_axis_mask": {"i": "0"}, "new_axis_mask": {"i": "0"}, "Index": {"type": "DT_INT64"}, "begin_mask": {"i": "15"}, "T": {"type": "DT_FLOAT"}, "end_mask": {"i": "7"}, "ellipsis_mask": {"i": "0"}}}, {"name": "model_119/tf.strided_slice_103/StridedSlice", "op": "StridedSlice", "input": ["model_119/tf.math.multiply_1416/Mul", "model_119/tf.strided_slice_103/ones_like/tensor", "model_119/tf.strided_slice_103/StridedSlice/end", "model_119/tf.strided_slice_103/ones_like"], "attr": {"shrink_axis_mask": {"i": "0"}, "new_axis_mask": {"i": "0"}, "Index": {"type": "DT_INT64"}, "begin_mask": {"i": "7"}, "end_mask": {"i": "7"}, "T": {"type": "DT_FLOAT"}, "ellipsis_mask": {"i": "0"}}}, {"name": "model_119/tf.math.add_440/Add", "op": "_FusedConv2D", "input": ["model_119/tf.strided_slice_103/StridedSlice", "model_119/tf.nn.convolution_363/convolution/filter", "model_119/tf.math.add_440/Add/y"], "device": "/device:CPU:0", "attr": {"num_host_args": {"i": "0"}, "data_format": {"s": "TkhXQw=="}, "filter_format": {"s": "SFdJTw=="}, "fused_ops": {"list": {"s": ["Qmlhc0FkZA=="]}}, "num_args": {"i": "1"}, "strides": {"list": {"i": ["1", "1", "1", "1"]}}, "TArgs": {"list": {"type": ["DT_FLOAT"]}}, "padding": {"s": "U0FNRQ=="}, "use_cudnn_on_gpu": {"b": true}, "leakyrelu_alpha": {"f": 0.2}, "epsilon": {"f": 0.0}, "T": {"type": "DT_FLOAT"}, "explicit_paddings": {"list": {}}, "dilations": {"list": {"i": ["1", "1", "1", "1"]}}}}, {"name": "model_119/tf.math.sigmoid_325/Sigmoid", "op": "Sigmoid", "input": ["model_119/tf.math.add_440/Add"], "attr": {"T": {"type": "DT_FLOAT"}}}, {"name": "model_119/tf.math.multiply_1420/Mul", "op": "Mul", "input": ["model_119/tf.math.add_440/Add", "model_119/tf.math.sigmoid_325/Sigmoid"], "attr": {"T": {"type": "DT_FLOAT"}}}, {"name": "model_119/tf.math.add_441/Add", "op": "_FusedConv2D", "input": ["model_119/tf.math.multiply_1420/Mul", "model_119/tf.nn.convolution_364/convolution/filter", "model_119/tf.math.add_441/Add/y"], "device": "/device:CPU:0", "attr": {"num_host_args": {"i": "0"}, "data_format": {"s": "TkhXQw=="}, "filter_format": {"s": "SFdJTw=="}, "strides": {"list": {"i": ["1", "1", "1", "1"]}}, "num_args": {"i": "1"}, "fused_ops": {"list": {"s": ["Qmlhc0FkZA=="]}}, "TArgs": {"list": {"type": ["DT_FLOAT"]}}, "padding": {"s": "U0FNRQ=="}, "use_cudnn_on_gpu": {"b": true}, "leakyrelu_alpha": {"f": 0.2}, "epsilon": {"f": 0.0}, "T": {"type": "DT_FLOAT"}, "explicit_paddings": {"list": {}}, "dilations": {"list": {"i": ["1", "1", "1", "1"]}}}}, {"name": "model_119/tf.math.sigmoid_326/Sigmoid", "op": "Sigmoid", "input": ["model_119/tf.math.add_441/Add"], "attr": {"T": {"type": "DT_FLOAT"}}}, {"name": "model_119/tf.math.multiply_1424/Mul", "op": "Mul", "input": ["model_119/tf.math.add_441/Add", "model_119/tf.math.sigmoid_326/Sigmoid"], "attr": {"T": {"type": "DT_FLOAT"}}}, {"name": "model_119/tf.concat_110/concat", "op": "ConcatV2", "input": ["model_119/tf.strided_slice_102/StridedSlice", "model_119/tf.strided_slice_103/StridedSlice", "model_119/tf.math.multiply_1424/Mul", "model_119/tf.concat_110/concat/axis"], "attr": {"N": {"i": "3"}, "T": {"type": "DT_FLOAT"}, "Tidx": {"type": "DT_INT32"}}}, {"name": "model_119/tf.math.add_442/Add", "op": "_FusedConv2D", "input": ["model_119/tf.concat_110/concat", "model_119/tf.nn.convolution_365/convolution/filter", "model_119/tf.math.add_442/Add/y"], "device": "/device:CPU:0", "attr": {"num_host_args": {"i": "0"}, "data_format": {"s": "TkhXQw=="}, "filter_format": {"s": "SFdJTw=="}, "strides": {"list": {"i": ["1", "1", "1", "1"]}}, "num_args": {"i": "1"}, "fused_ops": {"list": {"s": ["Qmlhc0FkZA=="]}}, "TArgs": {"list": {"type": ["DT_FLOAT"]}}, "padding": {"s": "U0FNRQ=="}, "use_cudnn_on_gpu": {"b": true}, "leakyrelu_alpha": {"f": 0.2}, "epsilon": {"f": 0.0}, "T": {"type": "DT_FLOAT"}, "explicit_paddings": {"list": {}}, "dilations": {"list": {"i": ["1", "1", "1", "1"]}}}}, {"name": "model_119/tf.math.sigmoid_327/Sigmoid", "op": "Sigmoid", "input": ["model_119/tf.math.add_442/Add"], "attr": {"T": {"type": "DT_FLOAT"}}}, {"name": "model_119/tf.math.multiply_1428/Mul", "op": "Mul", "input": ["model_119/tf.math.add_442/Add", "model_119/tf.math.sigmoid_327/Sigmoid"], "attr": {"T": {"type": "DT_FLOAT"}}}, {"name": "model_119/tf.math.add_444/Add", "op": "_FusedConv2D", "input": ["model_119/tf.math.multiply_1428/Mul", "model_119/tf.nn.convolution_367/convolution/filter", "model_119/tf.math.add_444/Add/y"], "device": "/device:CPU:0", "attr": {"num_host_args": {"i": "0"}, "data_format": {"s": "TkhXQw=="}, "filter_format": {"s": "SFdJTw=="}, "fused_ops": {"list": {"s": ["Qmlhc0FkZA=="]}}, "num_args": {"i": "1"}, "strides": {"list": {"i": ["1", "1", "1", "1"]}}, "TArgs": {"list": {"type": ["DT_FLOAT"]}}, "padding": {"s": "U0FNRQ=="}, "use_cudnn_on_gpu": {"b": true}, "leakyrelu_alpha": {"f": 0.2}, "epsilon": {"f": 0.0}, "T": {"type": "DT_FLOAT"}, "explicit_paddings": {"list": {}}, "dilations": {"list": {"i": ["1", "1", "1", "1"]}}}}, {"name": "model_119/tf.math.add_445/Add", "op": "_FusedConv2D", "input": ["model_119/tf.math.multiply_1428/Mul", "model_119/tf.nn.convolution_368/convolution/filter", "model_119/tf.math.add_445/Add/y"], "device": "/device:CPU:0", "attr": {"num_host_args": {"i": "0"}, "data_format": {"s": "TkhXQw=="}, "filter_format": {"s": "SFdJTw=="}, "fused_ops": {"list": {"s": ["Qmlhc0FkZA=="]}}, "num_args": {"i": "1"}, "strides": {"list": {"i": ["1", "1", "1", "1"]}}, "TArgs": {"list": {"type": ["DT_FLOAT"]}}, "padding": {"s": "U0FNRQ=="}, "use_cudnn_on_gpu": {"b": true}, "leakyrelu_alpha": {"f": 0.2}, "epsilon": {"f": 0.0}, "T": {"type": "DT_FLOAT"}, "explicit_paddings": {"list": {}}, "dilations": {"list": {"i": ["1", "1", "1", "1"]}}}}, {"name": "model_119/tf.compat.v1.pad_41/Pad", "op": "Pad", "input": ["model_119/tf.math.multiply_1428/Mul", "model_119/tf.compat.v1.pad_41/Pad/paddings"], "attr": {"Tpaddings": {"type": "DT_INT32"}, "T": {"type": "DT_FLOAT"}}}, {"name": "model_119/tf.math.sigmoid_329/Sigmoid", "op": "Sigmoid", "input": ["model_119/tf.math.add_444/Add"], "attr": {"T": {"type": "DT_FLOAT"}}}, {"name": "model_119/tf.math.sigmoid_330/Sigmoid", "op": "Sigmoid", "input": ["model_119/tf.math.add_445/Add"], "attr": {"T": {"type": "DT_FLOAT"}}}, {"name": "model_119/tf.math.add_443/Add", "op": "_FusedConv2D", "input": ["model_119/tf.compat.v1.pad_41/Pad", "model_119/tf.nn.convolution_366/convolution/filter", "model_119/tf.math.add_443/Add/y"], "device": "/device:CPU:0", "attr": {"num_host_args": {"i": "0"}, "data_format": {"s": "TkhXQw=="}, "filter_format": {"s": "SFdJTw=="}, "fused_ops": {"list": {"s": ["Qmlhc0FkZA=="]}}, "num_args": {"i": "1"}, "strides": {"list": {"i": ["1", "2", "2", "1"]}}, "TArgs": {"list": {"type": ["DT_FLOAT"]}}, "padding": {"s": "VkFMSUQ="}, "use_cudnn_on_gpu": {"b": true}, "leakyrelu_alpha": {"f": 0.2}, "epsilon": {"f": 0.0}, "T": {"type": "DT_FLOAT"}, "explicit_paddings": {"list": {}}, "dilations": {"list": {"i": ["1", "1", "1", "1"]}}}}, {"name": "model_119/tf.math.multiply_1436/Mul", "op": "Mul", "input": ["model_119/tf.math.add_444/Add", "model_119/tf.math.sigmoid_329/Sigmoid"], "attr": {"T": {"type": "DT_FLOAT"}}}, {"name": "model_119/tf.math.multiply_1440/Mul", "op": "Mul", "input": ["model_119/tf.math.add_445/Add", "model_119/tf.math.sigmoid_330/Sigmoid"], "attr": {"T": {"type": "DT_FLOAT"}}}, {"name": "model_119/tf.math.sigmoid_328/Sigmoid", "op": "Sigmoid", "input": ["model_119/tf.math.add_443/Add"], "attr": {"T": {"type": "DT_FLOAT"}}}, {"name": "model_119/tf.math.add_446/Add", "op": "_FusedConv2D", "input": ["model_119/tf.math.multiply_1436/Mul", "model_119/tf.nn.convolution_369/convolution/filter", "model_119/tf.math.add_446/Add/y"], "device": "/device:CPU:0", "attr": {"num_host_args": {"i": "0"}, "data_format": {"s": "TkhXQw=="}, "filter_format": {"s": "SFdJTw=="}, "fused_ops": {"list": {"s": ["Qmlhc0FkZA=="]}}, "num_args": {"i": "1"}, "strides": {"list": {"i": ["1", "1", "1", "1"]}}, "TArgs": {"list": {"type": ["DT_FLOAT"]}}, "padding": {"s": "U0FNRQ=="}, "use_cudnn_on_gpu": {"b": true}, "leakyrelu_alpha": {"f": 0.2}, "epsilon": {"f": 0.0}, "T": {"type": "DT_FLOAT"}, "explicit_paddings": {"list": {}}, "dilations": {"list": {"i": ["1", "1", "1", "1"]}}}}, {"name": "model_119/tf.math.add_447/Add", "op": "_FusedConv2D", "input": ["model_119/tf.math.multiply_1440/Mul", "model_119/tf.nn.convolution_370/convolution/filter", "model_119/tf.math.add_447/Add/y"], "device": "/device:CPU:0", "attr": {"num_host_args": {"i": "0"}, "data_format": {"s": "TkhXQw=="}, "filter_format": {"s": "SFdJTw=="}, "strides": {"list": {"i": ["1", "1", "1", "1"]}}, "num_args": {"i": "1"}, "fused_ops": {"list": {"s": ["Qmlhc0FkZA=="]}}, "TArgs": {"list": {"type": ["DT_FLOAT"]}}, "padding": {"s": "U0FNRQ=="}, "use_cudnn_on_gpu": {"b": true}, "leakyrelu_alpha": {"f": 0.2}, "epsilon": {"f": 0.0}, "T": {"type": "DT_FLOAT"}, "explicit_paddings": {"list": {}}, "dilations": {"list": {"i": ["1", "1", "1", "1"]}}}}, {"name": "model_119/tf.math.multiply_1432/Mul", "op": "Mul", "input": ["model_119/tf.math.add_443/Add", "model_119/tf.math.sigmoid_328/Sigmoid"], "attr": {"T": {"type": "DT_FLOAT"}}}, {"name": "model_119/tf.math.sigmoid_331/Sigmoid", "op": "Sigmoid", "input": ["model_119/tf.math.add_446/Add"], "attr": {"T": {"type": "DT_FLOAT"}}}, {"name": "model_119/tf.math.sigmoid_332/Sigmoid", "op": "Sigmoid", "input": ["model_119/tf.math.add_447/Add"], "attr": {"T": {"type": "DT_FLOAT"}}}, {"name": "model_119/tf.concat_111/concat", "op": "ConcatV2", "input": ["model_119/tf.math.multiply_1432/Mul", "model_119/tf.math.multiply_1360/Mul", "model_119/tf.concat_111/concat/axis"], "attr": {"N": {"i": "2"}, "Tidx": {"type": "DT_INT32"}, "T": {"type": "DT_FLOAT"}}}, {"name": "model_119/tf.math.multiply_1444/Mul", "op": "Mul", "input": ["model_119/tf.math.add_446/Add", "model_119/tf.math.sigmoid_331/Sigmoid"], "attr": {"T": {"type": "DT_FLOAT"}}}, {"name": "model_119/tf.math.multiply_1448/Mul", "op": "Mul", "input": ["model_119/tf.math.add_447/Add", "model_119/tf.math.sigmoid_332/Sigmoid"], "attr": {"T": {"type": "DT_FLOAT"}}}, {"name": "model_119/tf.math.add_448/Add", "op": "_FusedConv2D", "input": ["model_119/tf.concat_111/concat", "model_119/tf.nn.convolution_371/convolution/filter", "model_119/tf.math.add_448/Add/y"], "device": "/device:CPU:0", "attr": {"num_host_args": {"i": "0"}, "data_format": {"s": "TkhXQw=="}, "filter_format": {"s": "SFdJTw=="}, "strides": {"list": {"i": ["1", "1", "1", "1"]}}, "num_args": {"i": "1"}, "fused_ops": {"list": {"s": ["Qmlhc0FkZA=="]}}, "TArgs": {"list": {"type": ["DT_FLOAT"]}}, "padding": {"s": "U0FNRQ=="}, "use_cudnn_on_gpu": {"b": true}, "leakyrelu_alpha": {"f": 0.2}, "epsilon": {"f": 0.0}, "T": {"type": "DT_FLOAT"}, "explicit_paddings": {"list": {}}, "dilations": {"list": {"i": ["1", "1", "1", "1"]}}}}, {"name": "model_119/tf.math.add_449/Add", "op": "_FusedConv2D", "input": ["model_119/tf.math.multiply_1444/Mul", "model_119/tf.nn.convolution_372/convolution/filter", "model_119/tf.math.add_449/Add/y"], "device": "/device:CPU:0", "attr": {"num_host_args": {"i": "0"}, "data_format": {"s": "TkhXQw=="}, "filter_format": {"s": "SFdJTw=="}, "strides": {"list": {"i": ["1", "1", "1", "1"]}}, "num_args": {"i": "1"}, "fused_ops": {"list": {"s": ["Qmlhc0FkZA=="]}}, "TArgs": {"list": {"type": ["DT_FLOAT"]}}, "padding": {"s": "U0FNRQ=="}, "use_cudnn_on_gpu": {"b": true}, "leakyrelu_alpha": {"f": 0.2}, "epsilon": {"f": 0.0}, "T": {"type": "DT_FLOAT"}, "explicit_paddings": {"list": {}}, "dilations": {"list": {"i": ["1", "1", "1", "1"]}}}}, {"name": "model_119/tf.math.add_450/Add", "op": "_FusedConv2D", "input": ["model_119/tf.math.multiply_1448/Mul", "model_119/tf.nn.convolution_373/convolution/filter", "model_119/tf.math.add_450/Add/y"], "device": "/device:CPU:0", "attr": {"num_host_args": {"i": "0"}, "data_format": {"s": "TkhXQw=="}, "filter_format": {"s": "SFdJTw=="}, "strides": {"list": {"i": ["1", "1", "1", "1"]}}, "num_args": {"i": "1"}, "fused_ops": {"list": {"s": ["Qmlhc0FkZA=="]}}, "TArgs": {"list": {"type": ["DT_FLOAT"]}}, "padding": {"s": "U0FNRQ=="}, "use_cudnn_on_gpu": {"b": true}, "leakyrelu_alpha": {"f": 0.2}, "epsilon": {"f": 0.0}, "T": {"type": "DT_FLOAT"}, "explicit_paddings": {"list": {}}, "dilations": {"list": {"i": ["1", "1", "1", "1"]}}}}, {"name": "model_119/tf.math.sigmoid_333/Sigmoid", "op": "Sigmoid", "input": ["model_119/tf.math.add_448/Add"], "attr": {"T": {"type": "DT_FLOAT"}}}, {"name": "model_119/tf.compat.v1.transpose_592/transpose", "op": "Transpose", "input": ["model_119/tf.math.add_449/Add", "model_119/tf.compat.v1.transpose_592/transpose/perm"], "attr": {"Tperm": {"type": "DT_INT32"}, "T": {"type": "DT_FLOAT"}}}, {"name": "model_119/tf.compat.v1.transpose_597/transpose", "op": "Transpose", "input": ["model_119/tf.math.add_450/Add", "model_119/tf.compat.v1.transpose_597/transpose/perm"], "attr": {"Tperm": {"type": "DT_INT32"}, "T": {"type": "DT_FLOAT"}}}, {"name": "model_119/tf.math.multiply_1452/Mul", "op": "Mul", "input": ["model_119/tf.math.add_448/Add", "model_119/tf.math.sigmoid_333/Sigmoid"], "attr": {"T": {"type": "DT_FLOAT"}}}, {"name": "model_119/tf.reshape_128/Reshape", "op": "Reshape", "input": ["model_119/tf.compat.v1.transpose_592/transpose", "model_119/tf.reshape_128/Reshape/shape"], "attr": {"T": {"type": "DT_FLOAT"}, "Tshape": {"type": "DT_INT32"}}}, {"name": "model_119/tf.reshape_131/Reshape", "op": "Reshape", "input": ["model_119/tf.compat.v1.transpose_597/transpose", "model_119/tf.reshape_131/Reshape/shape"], "attr": {"T": {"type": "DT_FLOAT"}, "Tshape": {"type": "DT_INT32"}}}, {"name": "model_119/tf.strided_slice_104/StridedSlice", "op": "StridedSlice", "input": ["model_119/tf.math.multiply_1452/Mul", "model_119/tf.strided_slice_104/ones_like/tensor", "model_119/tf.strided_slice_104/StridedSlice/end", "model_119/tf.strided_slice_104/ones_like"], "attr": {"shrink_axis_mask": {"i": "0"}, "Index": {"type": "DT_INT64"}, "new_axis_mask": {"i": "0"}, "begin_mask": {"i": "15"}, "end_mask": {"i": "7"}, "T": {"type": "DT_FLOAT"}, "ellipsis_mask": {"i": "0"}}}, {"name": "model_119/tf.strided_slice_105/StridedSlice", "op": "StridedSlice", "input": ["model_119/tf.math.multiply_1452/Mul", "model_119/tf.strided_slice_105/ones_like/tensor", "model_119/tf.strided_slice_105/StridedSlice/end", "model_119/tf.strided_slice_105/ones_like"], "attr": {"shrink_axis_mask": {"i": "0"}, "Index": {"type": "DT_INT64"}, "new_axis_mask": {"i": "0"}, "begin_mask": {"i": "7"}, "end_mask": {"i": "7"}, "T": {"type": "DT_FLOAT"}, "ellipsis_mask": {"i": "0"}}}, {"name": "model_119/tf.math.add_451/Add", "op": "_FusedConv2D", "input": ["model_119/tf.strided_slice_105/StridedSlice", "model_119/tf.nn.convolution_374/convolution/filter", "model_119/tf.math.add_451/Add/y"], "device": "/device:CPU:0", "attr": {"num_host_args": {"i": "0"}, "data_format": {"s": "TkhXQw=="}, "filter_format": {"s": "SFdJTw=="}, "strides": {"list": {"i": ["1", "1", "1", "1"]}}, "num_args": {"i": "1"}, "fused_ops": {"list": {"s": ["Qmlhc0FkZA=="]}}, "TArgs": {"list": {"type": ["DT_FLOAT"]}}, "padding": {"s": "U0FNRQ=="}, "use_cudnn_on_gpu": {"b": true}, "leakyrelu_alpha": {"f": 0.2}, "epsilon": {"f": 0.0}, "T": {"type": "DT_FLOAT"}, "explicit_paddings": {"list": {}}, "dilations": {"list": {"i": ["1", "1", "1", "1"]}}}}, {"name": "model_119/tf.math.sigmoid_334/Sigmoid", "op": "Sigmoid", "input": ["model_119/tf.math.add_451/Add"], "attr": {"T": {"type": "DT_FLOAT"}}}, {"name": "model_119/tf.math.multiply_1456/Mul", "op": "Mul", "input": ["model_119/tf.math.add_451/Add", "model_119/tf.math.sigmoid_334/Sigmoid"], "attr": {"T": {"type": "DT_FLOAT"}}}, {"name": "model_119/tf.math.add_452/Add", "op": "_FusedConv2D", "input": ["model_119/tf.math.multiply_1456/Mul", "model_119/tf.nn.convolution_375/convolution/filter", "model_119/tf.math.add_452/Add/y"], "device": "/device:CPU:0", "attr": {"num_host_args": {"i": "0"}, "data_format": {"s": "TkhXQw=="}, "filter_format": {"s": "SFdJTw=="}, "strides": {"list": {"i": ["1", "1", "1", "1"]}}, "num_args": {"i": "1"}, "fused_ops": {"list": {"s": ["Qmlhc0FkZA=="]}}, "TArgs": {"list": {"type": ["DT_FLOAT"]}}, "padding": {"s": "U0FNRQ=="}, "use_cudnn_on_gpu": {"b": true}, "leakyrelu_alpha": {"f": 0.2}, "epsilon": {"f": 0.0}, "T": {"type": "DT_FLOAT"}, "explicit_paddings": {"list": {}}, "dilations": {"list": {"i": ["1", "1", "1", "1"]}}}}, {"name": "model_119/tf.math.sigmoid_335/Sigmoid", "op": "Sigmoid", "input": ["model_119/tf.math.add_452/Add"], "attr": {"T": {"type": "DT_FLOAT"}}}, {"name": "model_119/tf.math.multiply_1460/Mul", "op": "Mul", "input": ["model_119/tf.math.add_452/Add", "model_119/tf.math.sigmoid_335/Sigmoid"], "attr": {"T": {"type": "DT_FLOAT"}}}, {"name": "model_119/tf.concat_112/concat", "op": "ConcatV2", "input": ["model_119/tf.strided_slice_104/StridedSlice", "model_119/tf.strided_slice_105/StridedSlice", "model_119/tf.math.multiply_1460/Mul", "model_119/tf.concat_112/concat/axis"], "attr": {"N": {"i": "3"}, "Tidx": {"type": "DT_INT32"}, "T": {"type": "DT_FLOAT"}}}, {"name": "model_119/tf.math.add_453/Add", "op": "_FusedConv2D", "input": ["model_119/tf.concat_112/concat", "model_119/tf.nn.convolution_376/convolution/filter", "model_119/tf.math.add_453/Add/y"], "device": "/device:CPU:0", "attr": {"num_host_args": {"i": "0"}, "data_format": {"s": "TkhXQw=="}, "filter_format": {"s": "SFdJTw=="}, "strides": {"list": {"i": ["1", "1", "1", "1"]}}, "num_args": {"i": "1"}, "fused_ops": {"list": {"s": ["Qmlhc0FkZA=="]}}, "TArgs": {"list": {"type": ["DT_FLOAT"]}}, "padding": {"s": "U0FNRQ=="}, "use_cudnn_on_gpu": {"b": true}, "leakyrelu_alpha": {"f": 0.2}, "epsilon": {"f": 0.0}, "T": {"type": "DT_FLOAT"}, "explicit_paddings": {"list": {}}, "dilations": {"list": {"i": ["1", "1", "1", "1"]}}}}, {"name": "model_119/tf.math.sigmoid_336/Sigmoid", "op": "Sigmoid", "input": ["model_119/tf.math.add_453/Add"], "attr": {"T": {"type": "DT_FLOAT"}}}, {"name": "model_119/tf.math.multiply_1464/Mul", "op": "Mul", "input": ["model_119/tf.math.add_453/Add", "model_119/tf.math.sigmoid_336/Sigmoid"], "attr": {"T": {"type": "DT_FLOAT"}}}, {"name": "model_119/tf.math.add_454/Add", "op": "_FusedConv2D", "input": ["model_119/tf.math.multiply_1464/Mul", "model_119/tf.nn.convolution_377/convolution/filter", "model_119/tf.math.add_454/Add/y"], "device": "/device:CPU:0", "attr": {"num_host_args": {"i": "0"}, "data_format": {"s": "TkhXQw=="}, "filter_format": {"s": "SFdJTw=="}, "fused_ops": {"list": {"s": ["Qmlhc0FkZA=="]}}, "num_args": {"i": "1"}, "strides": {"list": {"i": ["1", "1", "1", "1"]}}, "TArgs": {"list": {"type": ["DT_FLOAT"]}}, "padding": {"s": "U0FNRQ=="}, "use_cudnn_on_gpu": {"b": true}, "leakyrelu_alpha": {"f": 0.2}, "epsilon": {"f": 0.0}, "T": {"type": "DT_FLOAT"}, "explicit_paddings": {"list": {}}, "dilations": {"list": {"i": ["1", "1", "1", "1"]}}}}, {"name": "model_119/tf.math.add_455/Add", "op": "_FusedConv2D", "input": ["model_119/tf.math.multiply_1464/Mul", "model_119/tf.nn.convolution_378/convolution/filter", "model_119/tf.math.add_455/Add/y"], "device": "/device:CPU:0", "attr": {"num_host_args": {"i": "0"}, "data_format": {"s": "TkhXQw=="}, "filter_format": {"s": "SFdJTw=="}, "strides": {"list": {"i": ["1", "1", "1", "1"]}}, "num_args": {"i": "1"}, "fused_ops": {"list": {"s": ["Qmlhc0FkZA=="]}}, "TArgs": {"list": {"type": ["DT_FLOAT"]}}, "padding": {"s": "U0FNRQ=="}, "use_cudnn_on_gpu": {"b": true}, "leakyrelu_alpha": {"f": 0.2}, "epsilon": {"f": 0.0}, "T": {"type": "DT_FLOAT"}, "explicit_paddings": {"list": {}}, "dilations": {"list": {"i": ["1", "1", "1", "1"]}}}}, {"name": "model_119/tf.math.sigmoid_337/Sigmoid", "op": "Sigmoid", "input": ["model_119/tf.math.add_454/Add"], "attr": {"T": {"type": "DT_FLOAT"}}}, {"name": "model_119/tf.math.sigmoid_338/Sigmoid", "op": "Sigmoid", "input": ["model_119/tf.math.add_455/Add"], "attr": {"T": {"type": "DT_FLOAT"}}}, {"name": "model_119/tf.math.multiply_1468/Mul", "op": "Mul", "input": ["model_119/tf.math.add_454/Add", "model_119/tf.math.sigmoid_337/Sigmoid"], "attr": {"T": {"type": "DT_FLOAT"}}}, {"name": "model_119/tf.math.multiply_1472/Mul", "op": "Mul", "input": ["model_119/tf.math.add_455/Add", "model_119/tf.math.sigmoid_338/Sigmoid"], "attr": {"T": {"type": "DT_FLOAT"}}}, {"name": "model_119/tf.math.add_456/Add", "op": "_FusedConv2D", "input": ["model_119/tf.math.multiply_1468/Mul", "model_119/tf.nn.convolution_379/convolution/filter", "model_119/tf.math.add_456/Add/y"], "device": "/device:CPU:0", "attr": {"num_host_args": {"i": "0"}, "data_format": {"s": "TkhXQw=="}, "filter_format": {"s": "SFdJTw=="}, "fused_ops": {"list": {"s": ["Qmlhc0FkZA=="]}}, "num_args": {"i": "1"}, "strides": {"list": {"i": ["1", "1", "1", "1"]}}, "TArgs": {"list": {"type": ["DT_FLOAT"]}}, "padding": {"s": "U0FNRQ=="}, "use_cudnn_on_gpu": {"b": true}, "leakyrelu_alpha": {"f": 0.2}, "epsilon": {"f": 0.0}, "T": {"type": "DT_FLOAT"}, "explicit_paddings": {"list": {}}, "dilations": {"list": {"i": ["1", "1", "1", "1"]}}}}, {"name": "model_119/tf.math.add_457/Add", "op": "_FusedConv2D", "input": ["model_119/tf.math.multiply_1472/Mul", "model_119/tf.nn.convolution_380/convolution/filter", "model_119/tf.math.add_457/Add/y"], "device": "/device:CPU:0", "attr": {"num_host_args": {"i": "0"}, "data_format": {"s": "TkhXQw=="}, "filter_format": {"s": "SFdJTw=="}, "fused_ops": {"list": {"s": ["Qmlhc0FkZA=="]}}, "num_args": {"i": "1"}, "strides": {"list": {"i": ["1", "1", "1", "1"]}}, "TArgs": {"list": {"type": ["DT_FLOAT"]}}, "padding": {"s": "U0FNRQ=="}, "use_cudnn_on_gpu": {"b": true}, "leakyrelu_alpha": {"f": 0.2}, "epsilon": {"f": 0.0}, "T": {"type": "DT_FLOAT"}, "explicit_paddings": {"list": {}}, "dilations": {"list": {"i": ["1", "1", "1", "1"]}}}}, {"name": "model_119/tf.math.sigmoid_339/Sigmoid", "op": "Sigmoid", "input": ["model_119/tf.math.add_456/Add"], "attr": {"T": {"type": "DT_FLOAT"}}}, {"name": "model_119/tf.math.sigmoid_340/Sigmoid", "op": "Sigmoid", "input": ["model_119/tf.math.add_457/Add"], "attr": {"T": {"type": "DT_FLOAT"}}}, {"name": "model_119/tf.math.multiply_1476/Mul", "op": "Mul", "input": ["model_119/tf.math.add_456/Add", "model_119/tf.math.sigmoid_339/Sigmoid"], "attr": {"T": {"type": "DT_FLOAT"}}}, {"name": "model_119/tf.math.multiply_1480/Mul", "op": "Mul", "input": ["model_119/tf.math.add_457/Add", "model_119/tf.math.sigmoid_340/Sigmoid"], "attr": {"T": {"type": "DT_FLOAT"}}}, {"name": "model_119/tf.math.add_458/Add", "op": "_FusedConv2D", "input": ["model_119/tf.math.multiply_1476/Mul", "model_119/tf.nn.convolution_381/convolution/filter", "model_119/tf.math.add_458/Add/y"], "device": "/device:CPU:0", "attr": {"num_host_args": {"i": "0"}, "data_format": {"s": "TkhXQw=="}, "filter_format": {"s": "SFdJTw=="}, "strides": {"list": {"i": ["1", "1", "1", "1"]}}, "num_args": {"i": "1"}, "fused_ops": {"list": {"s": ["Qmlhc0FkZA=="]}}, "TArgs": {"list": {"type": ["DT_FLOAT"]}}, "padding": {"s": "U0FNRQ=="}, "use_cudnn_on_gpu": {"b": true}, "leakyrelu_alpha": {"f": 0.2}, "epsilon": {"f": 0.0}, "T": {"type": "DT_FLOAT"}, "explicit_paddings": {"list": {}}, "dilations": {"list": {"i": ["1", "1", "1", "1"]}}}}, {"name": "model_119/tf.math.add_459/Add", "op": "_FusedConv2D", "input": ["model_119/tf.math.multiply_1480/Mul", "model_119/tf.nn.convolution_382/convolution/filter", "model_119/tf.math.add_459/Add/y"], "device": "/device:CPU:0", "attr": {"num_host_args": {"i": "0"}, "data_format": {"s": "TkhXQw=="}, "filter_format": {"s": "SFdJTw=="}, "fused_ops": {"list": {"s": ["Qmlhc0FkZA=="]}}, "num_args": {"i": "1"}, "strides": {"list": {"i": ["1", "1", "1", "1"]}}, "TArgs": {"list": {"type": ["DT_FLOAT"]}}, "padding": {"s": "U0FNRQ=="}, "use_cudnn_on_gpu": {"b": true}, "leakyrelu_alpha": {"f": 0.2}, "epsilon": {"f": 0.0}, "T": {"type": "DT_FLOAT"}, "explicit_paddings": {"list": {}}, "dilations": {"list": {"i": ["1", "1", "1", "1"]}}}}, {"name": "model_119/tf.compat.v1.transpose_609/transpose", "op": "Transpose", "input": ["model_119/tf.math.add_458/Add", "model_119/tf.compat.v1.transpose_609/transpose/perm"], "attr": {"Tperm": {"type": "DT_INT32"}, "T": {"type": "DT_FLOAT"}}}, {"name": "model_119/tf.compat.v1.transpose_614/transpose", "op": "Transpose", "input": ["model_119/tf.math.add_459/Add", "model_119/tf.compat.v1.transpose_614/transpose/perm"], "attr": {"Tperm": {"type": "DT_INT32"}, "T": {"type": "DT_FLOAT"}}}, {"name": "model_119/tf.reshape_134/Reshape", "op": "Reshape", "input": ["model_119/tf.compat.v1.transpose_609/transpose", "model_119/tf.reshape_134/Reshape/shape"], "attr": {"T": {"type": "DT_FLOAT"}, "Tshape": {"type": "DT_INT32"}}}, {"name": "model_119/tf.reshape_137/Reshape", "op": "Reshape", "input": ["model_119/tf.compat.v1.transpose_614/transpose", "model_119/tf.reshape_137/Reshape/shape"], "attr": {"T": {"type": "DT_FLOAT"}, "Tshape": {"type": "DT_INT32"}}}, {"name": "model_119/tf.concat_113/concat", "op": "ConcatV2", "input": ["model_119/tf.reshape_122/Reshape", "model_119/tf.reshape_128/Reshape", "model_119/tf.reshape_134/Reshape", "model_119/tf.concat_113/concat/axis"], "attr": {"N": {"i": "3"}, "T": {"type": "DT_FLOAT"}, "Tidx": {"type": "DT_INT32"}}}, {"name": "model_119/tf.concat_114/concat", "op": "ConcatV2", "input": ["model_119/tf.reshape_125/Reshape", "model_119/tf.reshape_131/Reshape", "model_119/tf.reshape_137/Reshape", "model_119/tf.concat_114/concat/axis"], "attr": {"N": {"i": "3"}, "Tidx": {"type": "DT_INT32"}, "T": {"type": "DT_FLOAT"}}}, {"name": "model_119/tf.reshape_140/Reshape", "op": "Reshape", "input": ["model_119/tf.concat_113/concat", "model_119/tf.reshape_140/Reshape/shape"], "attr": {"T": {"type": "DT_FLOAT"}, "Tshape": {"type": "DT_INT32"}}}, {"name": "model_119/tf.math.sigmoid_341/Sigmoid", "op": "Sigmoid", "input": ["model_119/tf.concat_114/concat"], "attr": {"T": {"type": "DT_FLOAT"}}}, {"name": "model_119/tf.compat.v1.transpose_621/transpose", "op": "Transpose", "input": ["model_119/tf.reshape_140/Reshape", "model_119/tf.compat.v1.transpose_621/transpose/perm"], "attr": {"Tperm": {"type": "DT_INT32"}, "T": {"type": "DT_FLOAT"}}}, {"name": "model_119/tf.compat.v1.transpose_622/transpose", "op": "Transpose", "input": ["model_119/tf.compat.v1.transpose_621/transpose", "model_119/tf.compat.v1.transpose_622/transpose/perm"], "attr": {"Tperm": {"type": "DT_INT32"}, "T": {"type": "DT_FLOAT"}}}, {"name": "model_119/tf.nn.softmax_5/wa/model.22/dfl/Softmax", "op": "Softmax", "input": ["model_119/tf.compat.v1.transpose_622/transpose"], "attr": {"T": {"type": "DT_FLOAT"}}}, {"name": "model_119/tf.nn.convolution_383/convolution", "op": "Conv2D", "input": ["model_119/tf.nn.softmax_5/wa/model.22/dfl/Softmax", "model_119/tf.nn.convolution_383/convolution/filter"], "device": "/device:CPU:0", "attr": {"padding": {"s": "U0FNRQ=="}, "data_format": {"s": "TkhXQw=="}, "strides": {"list": {"i": ["1", "1", "1", "1"]}}, "use_cudnn_on_gpu": {"b": true}, "T": {"type": "DT_FLOAT"}, "explicit_paddings": {"list": {}}, "dilations": {"list": {"i": ["1", "1", "1", "1"]}}}}, {"name": "model_119/tf.compat.v1.transpose_627/transpose", "op": "Transpose", "input": ["model_119/tf.nn.convolution_383/convolution", "model_119/tf.compat.v1.transpose_627/transpose/perm"], "attr": {"Tperm": {"type": "DT_INT32"}, "T": {"type": "DT_FLOAT"}}}, {"name": "model_119/tf.reshape_143/Reshape", "op": "Reshape", "input": ["model_119/tf.compat.v1.transpose_627/transpose", "model_119/tf.reshape_143/Reshape/shape"], "attr": {"T": {"type": "DT_FLOAT"}, "Tshape": {"type": "DT_INT32"}}}, {"name": "model_119/tf.strided_slice_107/StridedSlice", "op": "StridedSlice", "input": ["model_119/tf.reshape_143/Reshape", "model_119/tf.strided_slice_107/ones_like/tensor", "model_119/tf.strided_slice_107/StridedSlice/end", "model_119/tf.strided_slice_107/ones_like"], "attr": {"shrink_axis_mask": {"i": "0"}, "Index": {"type": "DT_INT64"}, "new_axis_mask": {"i": "0"}, "begin_mask": {"i": "5"}, "T": {"type": "DT_FLOAT"}, "end_mask": {"i": "5"}, "ellipsis_mask": {"i": "0"}}}, {"name": "model_119/tf.strided_slice_106/StridedSlice", "op": "StridedSlice", "input": ["model_119/tf.reshape_143/Reshape", "model_119/tf.strided_slice_106/ones_like/tensor", "model_119/tf.strided_slice_106/StridedSlice/end", "model_119/tf.strided_slice_106/ones_like"], "attr": {"shrink_axis_mask": {"i": "0"}, "Index": {"type": "DT_INT64"}, "new_axis_mask": {"i": "0"}, "begin_mask": {"i": "7"}, "end_mask": {"i": "5"}, "T": {"type": "DT_FLOAT"}, "ellipsis_mask": {"i": "0"}}}, {"name": "model_119/tf.math.add_460/Add", "op": "AddV2", "input": ["model_119/tf.strided_slice_107/StridedSlice", "model_119/tf.math.add_460/Add/y"], "attr": {"T": {"type": "DT_FLOAT"}}}, {"name": "model_119/tf.math.subtract_10/Sub", "op": "Sub", "input": ["model_119/89843", "model_119/tf.strided_slice_106/StridedSlice"], "attr": {"T": {"type": "DT_FLOAT"}}}, {"name": "model_119/tf.math.add_461/Add", "op": "AddV2", "input": ["model_119/tf.math.subtract_10/Sub", "model_119/tf.math.add_460/Add"], "attr": {"T": {"type": "DT_FLOAT"}}}, {"name": "model_119/tf.math.subtract_11/Sub", "op": "Sub", "input": ["model_119/tf.math.add_460/Add", "model_119/tf.math.subtract_10/Sub"], "attr": {"T": {"type": "DT_FLOAT"}}}, {"name": "model_119/tf.math.divide_5/truediv", "op": "Mul", "input": ["model_119/tf.math.add_461/Add", "ConstantFolding/model_119/tf.math.divide_5/truediv_recip"], "attr": {"T": {"type": "DT_FLOAT"}}}, {"name": "model_119/tf.concat_118/concat", "op": "ConcatV2", "input": ["model_119/tf.math.divide_5/truediv", "model_119/tf.math.subtract_11/Sub", "model_119/tf.concat_118/concat/axis"], "attr": {"N": {"i": "2"}, "T": {"type": "DT_FLOAT"}, "Tidx": {"type": "DT_INT32"}}}, {"name": "model_119/tf.math.multiply_1493/Mul", "op": "Mul", "input": ["model_119/tf.concat_118/concat", "model_119/tf.math.multiply_1493/Mul/y"], "attr": {"T": {"type": "DT_FLOAT"}}}, {"name": "model_119/output0/concat", "op": "ConcatV2", "input": ["model_119/tf.math.multiply_1493/Mul", "model_119/tf.math.sigmoid_341/Sigmoid", "model_119/output0/concat/axis"], "attr": {"N": {"i": "2"}, "T": {"type": "DT_FLOAT"}, "Tidx": {"type": "DT_INT32"}}}, {"name": "Identity", "op": "Identity", "input": ["model_119/output0/concat"], "attr": {"T": {"type": "DT_FLOAT"}}}], "library": {}, "versions": {"producer": 2129}}, "weightsManifest": [{"paths": ["group1-shard1of11.bin", "group1-shard2of11.bin", "group1-shard3of11.bin", "group1-shard4of11.bin", "group1-shard5of11.bin", "group1-shard6of11.bin", "group1-shard7of11.bin", "group1-shard8of11.bin", "group1-shard9of11.bin", "group1-shard10of11.bin", "group1-shard11of11.bin"], "weights": [{"name": "ConstantFolding/model_119/tf.math.divide_5/truediv_recip", "shape": [], "dtype": "float32"}, {"name": "model_119/tf.strided_slice_107/ones_like/tensor", "shape": [3], "dtype": "int32"}, {"name": "model_119/tf.strided_slice_107/StridedSlice/end", "shape": [3], "dtype": "int32"}, {"name": "model_119/tf.strided_slice_107/ones_like", "shape": [3], "dtype": "int32"}, {"name": "model_119/tf.math.add_460/Add/y", "shape": [1, 2, 8400], "dtype": "float32"}, {"name": "model_119/89843", "shape": [1, 2, 8400], "dtype": "float32"}, {"name": "model_119/tf.nn.convolution_356/convolution/filter", "shape": [3, 3, 128, 64], "dtype": "float32"}, {"name": "model_119/tf.math.add_433/Add/y", "shape": [64], "dtype": "float32"}, {"name": "model_119/tf.nn.convolution_358/convolution/filter", "shape": [3, 3, 64, 64], "dtype": "float32"}, {"name": "model_119/tf.math.add_435/Add/y", "shape": [64], "dtype": "float32"}, {"name": "model_119/tf.nn.convolution_361/convolution/filter", "shape": [1, 1, 64, 64], "dtype": "float32"}, {"name": "model_119/tf.math.add_438/Add/y", "shape": [64], "dtype": "float32"}, {"name": "model_119/tf.compat.v1.transpose_573/transpose/perm", "shape": [4], "dtype": "int32"}, {"name": "model_119/tf.reshape_122/Reshape/shape", "shape": [3], "dtype": "int32"}, {"name": "model_119/tf.nn.convolution_367/convolution/filter", "shape": [3, 3, 256, 64], "dtype": "float32"}, {"name": "model_119/tf.math.add_444/Add/y", "shape": [64], "dtype": "float32"}, {"name": "model_119/tf.nn.convolution_369/convolution/filter", "shape": [3, 3, 64, 64], "dtype": "float32"}, {"name": "model_119/tf.math.add_446/Add/y", "shape": [64], "dtype": "float32"}, {"name": "model_119/tf.nn.convolution_372/convolution/filter", "shape": [1, 1, 64, 64], "dtype": "float32"}, {"name": "model_119/tf.math.add_449/Add/y", "shape": [64], "dtype": "float32"}, {"name": "model_119/tf.compat.v1.transpose_592/transpose/perm", "shape": [4], "dtype": "int32"}, {"name": "model_119/tf.reshape_128/Reshape/shape", "shape": [3], "dtype": "int32"}, {"name": "model_119/tf.nn.convolution_377/convolution/filter", "shape": [3, 3, 512, 64], "dtype": "float32"}, {"name": "model_119/tf.math.add_454/Add/y", "shape": [64], "dtype": "float32"}, {"name": "model_119/tf.nn.convolution_379/convolution/filter", "shape": [3, 3, 64, 64], "dtype": "float32"}, {"name": "model_119/tf.math.add_456/Add/y", "shape": [64], "dtype": "float32"}, {"name": "model_119/tf.nn.convolution_381/convolution/filter", "shape": [1, 1, 64, 64], "dtype": "float32"}, {"name": "model_119/tf.math.add_458/Add/y", "shape": [64], "dtype": "float32"}, {"name": "model_119/tf.compat.v1.transpose_609/transpose/perm", "shape": [4], "dtype": "int32"}, {"name": "model_119/tf.reshape_134/Reshape/shape", "shape": [3], "dtype": "int32"}, {"name": "model_119/tf.concat_113/concat/axis", "shape": [], "dtype": "int32"}, {"name": "model_119/tf.reshape_140/Reshape/shape", "shape": [4], "dtype": "int32"}, {"name": "model_119/tf.compat.v1.transpose_621/transpose/perm", "shape": [4], "dtype": "int32"}, {"name": "model_119/tf.compat.v1.transpose_622/transpose/perm", "shape": [4], "dtype": "int32"}, {"name": "model_119/tf.nn.convolution_383/convolution/filter", "shape": [1, 1, 16, 1], "dtype": "float32"}, {"name": "model_119/tf.compat.v1.transpose_627/transpose/perm", "shape": [4], "dtype": "int32"}, {"name": "model_119/tf.reshape_143/Reshape/shape", "shape": [3], "dtype": "int32"}, {"name": "model_119/tf.strided_slice_106/ones_like/tensor", "shape": [3], "dtype": "int32"}, {"name": "model_119/tf.strided_slice_106/StridedSlice/end", "shape": [3], "dtype": "int32"}, {"name": "model_119/tf.strided_slice_106/ones_like", "shape": [3], "dtype": "int32"}, {"name": "model_119/tf.concat_118/concat/axis", "shape": [], "dtype": "int32"}, {"name": "model_119/tf.math.multiply_1493/Mul/y", "shape": [1, 1, 8400], "dtype": "float32"}, {"name": "model_119/tf.nn.convolution_357/convolution/filter", "shape": [3, 3, 128, 128], "dtype": "float32"}, {"name": "model_119/tf.math.add_434/Add/y", "shape": [128], "dtype": "float32"}, {"name": "model_119/tf.nn.convolution_359/convolution/filter", "shape": [3, 3, 128, 128], "dtype": "float32"}, {"name": "model_119/tf.math.add_436/Add/y", "shape": [128], "dtype": "float32"}, {"name": "model_119/tf.nn.convolution_362/convolution/filter", "shape": [1, 1, 128, 52], "dtype": "float32"}, {"name": "model_119/tf.math.add_439/Add/y", "shape": [52], "dtype": "float32"}, {"name": "model_119/tf.compat.v1.transpose_578/transpose/perm", "shape": [4], "dtype": "int32"}, {"name": "model_119/tf.reshape_125/Reshape/shape", "shape": [3], "dtype": "int32"}, {"name": "model_119/tf.nn.convolution_368/convolution/filter", "shape": [3, 3, 256, 128], "dtype": "float32"}, {"name": "model_119/tf.math.add_445/Add/y", "shape": [128], "dtype": "float32"}, {"name": "model_119/tf.nn.convolution_370/convolution/filter", "shape": [3, 3, 128, 128], "dtype": "float32"}, {"name": "model_119/tf.math.add_447/Add/y", "shape": [128], "dtype": "float32"}, {"name": "model_119/tf.nn.convolution_373/convolution/filter", "shape": [1, 1, 128, 52], "dtype": "float32"}, {"name": "model_119/tf.math.add_450/Add/y", "shape": [52], "dtype": "float32"}, {"name": "model_119/tf.compat.v1.transpose_597/transpose/perm", "shape": [4], "dtype": "int32"}, {"name": "model_119/tf.reshape_131/Reshape/shape", "shape": [3], "dtype": "int32"}, {"name": "model_119/tf.strided_slice_104/ones_like/tensor", "shape": [4], "dtype": "int32"}, {"name": "model_119/tf.strided_slice_104/StridedSlice/end", "shape": [4], "dtype": "int32"}, {"name": "model_119/tf.strided_slice_104/ones_like", "shape": [4], "dtype": "int32"}, {"name": "model_119/tf.strided_slice_102/ones_like/tensor", "shape": [4], "dtype": "int32"}, {"name": "model_119/tf.strided_slice_102/StridedSlice/end", "shape": [4], "dtype": "int32"}, {"name": "model_119/tf.strided_slice_102/ones_like", "shape": [4], "dtype": "int32"}, {"name": "model_119/tf.strided_slice_100/ones_like/tensor", "shape": [4], "dtype": "int32"}, {"name": "model_119/tf.strided_slice_100/StridedSlice/end", "shape": [4], "dtype": "int32"}, {"name": "model_119/tf.strided_slice_100/ones_like", "shape": [4], "dtype": "int32"}, {"name": "model_119/tf.image.resize_11/resize/size", "shape": [2], "dtype": "int32"}, {"name": "model_119/tf.concat_107/concat/axis", "shape": [], "dtype": "int32"}, {"name": "model_119/tf.nn.convolution_351/convolution/filter", "shape": [1, 1, 384, 128], "dtype": "float32"}, {"name": "model_119/tf.math.add_428/Add/y", "shape": [128], "dtype": "float32"}, {"name": "model_119/tf.strided_slice_101/ones_like/tensor", "shape": [4], "dtype": "int32"}, {"name": "model_119/tf.strided_slice_101/StridedSlice/end", "shape": [4], "dtype": "int32"}, {"name": "model_119/tf.strided_slice_101/ones_like", "shape": [4], "dtype": "int32"}, {"name": "model_119/tf.nn.convolution_352/convolution/filter", "shape": [3, 3, 64, 64], "dtype": "float32"}, {"name": "model_119/tf.math.add_429/Add/y", "shape": [64], "dtype": "float32"}, {"name": "model_119/tf.nn.convolution_353/convolution/filter", "shape": [3, 3, 64, 64], "dtype": "float32"}, {"name": "model_119/tf.math.add_430/Add/y", "shape": [64], "dtype": "float32"}, {"name": "model_119/tf.concat_108/concat/axis", "shape": [], "dtype": "int32"}, {"name": "model_119/tf.nn.convolution_354/convolution/filter", "shape": [1, 1, 192, 128], "dtype": "float32"}, {"name": "model_119/tf.math.add_431/Add/y", "shape": [128], "dtype": "float32"}, {"name": "model_119/tf.compat.v1.pad_40/Pad/paddings", "shape": [4, 2], "dtype": "int32"}, {"name": "model_119/tf.nn.convolution_355/convolution/filter", "shape": [3, 3, 128, 128], "dtype": "float32"}, {"name": "model_119/tf.math.add_432/Add/y", "shape": [128], "dtype": "float32"}, {"name": "model_119/tf.strided_slice_98/ones_like/tensor", "shape": [4], "dtype": "int32"}, {"name": "model_119/tf.strided_slice_98/StridedSlice/end", "shape": [4], "dtype": "int32"}, {"name": "model_119/tf.strided_slice_98/ones_like", "shape": [4], "dtype": "int32"}, {"name": "model_119/tf.image.resize_10/resize/size", "shape": [2], "dtype": "int32"}, {"name": "model_119/tf.concat_105/concat/axis", "shape": [], "dtype": "int32"}, {"name": "model_119/tf.nn.convolution_347/convolution/filter", "shape": [1, 1, 768, 256], "dtype": "float32"}, {"name": "model_119/tf.math.add_424/Add/y", "shape": [256], "dtype": "float32"}, {"name": "model_119/tf.strided_slice_99/ones_like/tensor", "shape": [4], "dtype": "int32"}, {"name": "model_119/tf.strided_slice_99/StridedSlice/end", "shape": [4], "dtype": "int32"}, {"name": "model_119/tf.strided_slice_99/ones_like", "shape": [4], "dtype": "int32"}, {"name": "model_119/tf.nn.convolution_348/convolution/filter", "shape": [3, 3, 128, 128], "dtype": "float32"}, {"name": "model_119/tf.math.add_425/Add/y", "shape": [128], "dtype": "float32"}, {"name": "model_119/tf.nn.convolution_349/convolution/filter", "shape": [3, 3, 128, 128], "dtype": "float32"}, {"name": "model_119/tf.math.add_426/Add/y", "shape": [128], "dtype": "float32"}, {"name": "model_119/tf.concat_106/concat/axis", "shape": [], "dtype": "int32"}, {"name": "model_119/tf.nn.convolution_350/convolution/filter", "shape": [1, 1, 384, 256], "dtype": "float32"}, {"name": "model_119/tf.math.add_427/Add/y", "shape": [256], "dtype": "float32"}, {"name": "model_119/tf.concat_109/concat/axis", "shape": [], "dtype": "int32"}, {"name": "model_119/tf.nn.convolution_360/convolution/filter", "shape": [1, 1, 384, 256], "dtype": "float32"}, {"name": "model_119/tf.math.add_437/Add/y", "shape": [256], "dtype": "float32"}, {"name": "model_119/tf.strided_slice_103/ones_like/tensor", "shape": [4], "dtype": "int32"}, {"name": "model_119/tf.strided_slice_103/StridedSlice/end", "shape": [4], "dtype": "int32"}, {"name": "model_119/tf.strided_slice_103/ones_like", "shape": [4], "dtype": "int32"}, {"name": "model_119/tf.nn.convolution_363/convolution/filter", "shape": [3, 3, 128, 128], "dtype": "float32"}, {"name": "model_119/tf.math.add_440/Add/y", "shape": [128], "dtype": "float32"}, {"name": "model_119/tf.nn.convolution_364/convolution/filter", "shape": [3, 3, 128, 128], "dtype": "float32"}, {"name": "model_119/tf.math.add_441/Add/y", "shape": [128], "dtype": "float32"}, {"name": "model_119/tf.concat_110/concat/axis", "shape": [], "dtype": "int32"}, {"name": "model_119/tf.nn.convolution_365/convolution/filter", "shape": [1, 1, 384, 256], "dtype": "float32"}, {"name": "model_119/tf.math.add_442/Add/y", "shape": [256], "dtype": "float32"}, {"name": "model_119/tf.compat.v1.pad_41/Pad/paddings", "shape": [4, 2], "dtype": "int32"}, {"name": "model_119/tf.nn.convolution_366/convolution/filter", "shape": [3, 3, 256, 256], "dtype": "float32"}, {"name": "model_119/tf.math.add_443/Add/y", "shape": [256], "dtype": "float32"}, {"name": "model_119/tf.strided_slice_96/ones_like/tensor", "shape": [4], "dtype": "int32"}, {"name": "model_119/tf.strided_slice_96/StridedSlice/end", "shape": [4], "dtype": "int32"}, {"name": "model_119/tf.strided_slice_96/ones_like", "shape": [4], "dtype": "int32"}, {"name": "model_119/tf.strided_slice_94/ones_like/tensor", "shape": [4], "dtype": "int32"}, {"name": "model_119/tf.strided_slice_94/StridedSlice/end", "shape": [4], "dtype": "int32"}, {"name": "model_119/tf.strided_slice_94/ones_like", "shape": [4], "dtype": "int32"}, {"name": "model_119/tf.strided_slice_92/ones_like/tensor", "shape": [4], "dtype": "int32"}, {"name": "model_119/tf.strided_slice_92/StridedSlice/end", "shape": [4], "dtype": "int32"}, {"name": "model_119/tf.strided_slice_92/ones_like", "shape": [4], "dtype": "int32"}, {"name": "model_119/tf.strided_slice_90/ones_like/tensor", "shape": [4], "dtype": "int32"}, {"name": "model_119/tf.strided_slice_90/StridedSlice/end", "shape": [4], "dtype": "int32"}, {"name": "model_119/tf.strided_slice_90/ones_like", "shape": [4], "dtype": "int32"}, {"name": "model_119/tf.compat.v1.pad_35/Pad/paddings", "shape": [4, 2], "dtype": "int32"}, {"name": "model_119/tf.nn.convolution_320/convolution/filter", "shape": [3, 3, 3, 32], "dtype": "float32"}, {"name": "model_119/tf.math.add_385/Add/y", "shape": [32], "dtype": "float32"}, {"name": "model_119/tf.compat.v1.pad_36/Pad/paddings", "shape": [4, 2], "dtype": "int32"}, {"name": "model_119/tf.nn.convolution_321/convolution/filter", "shape": [3, 3, 32, 64], "dtype": "float32"}, {"name": "model_119/tf.math.add_386/Add/y", "shape": [64], "dtype": "float32"}, {"name": "model_119/tf.nn.convolution_322/convolution/filter", "shape": [1, 1, 64, 64], "dtype": "float32"}, {"name": "model_119/tf.math.add_387/Add/y", "shape": [64], "dtype": "float32"}, {"name": "model_119/tf.strided_slice_91/ones_like/tensor", "shape": [4], "dtype": "int32"}, {"name": "model_119/tf.strided_slice_91/StridedSlice/end", "shape": [4], "dtype": "int32"}, {"name": "model_119/tf.strided_slice_91/ones_like", "shape": [4], "dtype": "int32"}, {"name": "model_119/tf.nn.convolution_323/convolution/filter", "shape": [3, 3, 32, 32], "dtype": "float32"}, {"name": "model_119/tf.math.add_388/Add/y", "shape": [32], "dtype": "float32"}, {"name": "model_119/tf.nn.convolution_324/convolution/filter", "shape": [3, 3, 32, 32], "dtype": "float32"}, {"name": "model_119/tf.math.add_389/Add/y", "shape": [32], "dtype": "float32"}, {"name": "model_119/tf.concat_100/concat/axis", "shape": [], "dtype": "int32"}, {"name": "model_119/tf.nn.convolution_325/convolution/filter", "shape": [1, 1, 96, 64], "dtype": "float32"}, {"name": "model_119/tf.math.add_392/Add/y", "shape": [64], "dtype": "float32"}, {"name": "model_119/tf.compat.v1.pad_37/Pad/paddings", "shape": [4, 2], "dtype": "int32"}, {"name": "model_119/tf.nn.convolution_326/convolution/filter", "shape": [3, 3, 64, 128], "dtype": "float32"}, {"name": "model_119/tf.math.add_393/Add/y", "shape": [128], "dtype": "float32"}, {"name": "model_119/tf.nn.convolution_327/convolution/filter", "shape": [1, 1, 128, 128], "dtype": "float32"}, {"name": "model_119/tf.math.add_394/Add/y", "shape": [128], "dtype": "float32"}, {"name": "model_119/tf.strided_slice_93/ones_like/tensor", "shape": [4], "dtype": "int32"}, {"name": "model_119/tf.strided_slice_93/StridedSlice/end", "shape": [4], "dtype": "int32"}, {"name": "model_119/tf.strided_slice_93/ones_like", "shape": [4], "dtype": "int32"}, {"name": "model_119/tf.nn.convolution_328/convolution/filter", "shape": [3, 3, 64, 64], "dtype": "float32"}, {"name": "model_119/tf.math.add_395/Add/y", "shape": [64], "dtype": "float32"}, {"name": "model_119/tf.nn.convolution_329/convolution/filter", "shape": [3, 3, 64, 64], "dtype": "float32"}, {"name": "model_119/tf.math.add_396/Add/y", "shape": [64], "dtype": "float32"}, {"name": "model_119/tf.nn.convolution_330/convolution/filter", "shape": [3, 3, 64, 64], "dtype": "float32"}, {"name": "model_119/tf.math.add_399/Add/y", "shape": [64], "dtype": "float32"}, {"name": "model_119/tf.nn.convolution_331/convolution/filter", "shape": [3, 3, 64, 64], "dtype": "float32"}, {"name": "model_119/tf.math.add_400/Add/y", "shape": [64], "dtype": "float32"}, {"name": "model_119/tf.concat_101/concat/axis", "shape": [], "dtype": "int32"}, {"name": "model_119/tf.nn.convolution_332/convolution/filter", "shape": [1, 1, 256, 128], "dtype": "float32"}, {"name": "model_119/tf.math.add_403/Add/y", "shape": [128], "dtype": "float32"}, {"name": "model_119/tf.compat.v1.pad_38/Pad/paddings", "shape": [4, 2], "dtype": "int32"}, {"name": "model_119/tf.nn.convolution_333/convolution/filter", "shape": [3, 3, 128, 256], "dtype": "float32"}, {"name": "model_119/tf.math.add_404/Add/y", "shape": [256], "dtype": "float32"}, {"name": "model_119/tf.nn.convolution_334/convolution/filter", "shape": [1, 1, 256, 256], "dtype": "float32"}, {"name": "model_119/tf.math.add_405/Add/y", "shape": [256], "dtype": "float32"}, {"name": "model_119/tf.strided_slice_95/ones_like/tensor", "shape": [4], "dtype": "int32"}, {"name": "model_119/tf.strided_slice_95/StridedSlice/end", "shape": [4], "dtype": "int32"}, {"name": "model_119/tf.strided_slice_95/ones_like", "shape": [4], "dtype": "int32"}, {"name": "model_119/tf.nn.convolution_335/convolution/filter", "shape": [3, 3, 128, 128], "dtype": "float32"}, {"name": "model_119/tf.math.add_406/Add/y", "shape": [128], "dtype": "float32"}, {"name": "model_119/tf.nn.convolution_336/convolution/filter", "shape": [3, 3, 128, 128], "dtype": "float32"}, {"name": "model_119/tf.math.add_407/Add/y", "shape": [128], "dtype": "float32"}, {"name": "model_119/tf.nn.convolution_337/convolution/filter", "shape": [3, 3, 128, 128], "dtype": "float32"}, {"name": "model_119/tf.math.add_410/Add/y", "shape": [128], "dtype": "float32"}, {"name": "model_119/tf.nn.convolution_338/convolution/filter", "shape": [3, 3, 128, 128], "dtype": "float32"}, {"name": "model_119/tf.math.add_411/Add/y", "shape": [128], "dtype": "float32"}, {"name": "model_119/tf.concat_102/concat/axis", "shape": [], "dtype": "int32"}, {"name": "model_119/tf.nn.convolution_339/convolution/filter", "shape": [1, 1, 512, 256], "dtype": "float32"}, {"name": "model_119/tf.math.add_414/Add/y", "shape": [256], "dtype": "float32"}, {"name": "model_119/tf.compat.v1.pad_39/Pad/paddings", "shape": [4, 2], "dtype": "int32"}, {"name": "model_119/tf.nn.convolution_340/convolution/filter", "shape": [3, 3, 256, 512], "dtype": "float32"}, {"name": "model_119/tf.math.add_415/Add/y", "shape": [512], "dtype": "float32"}, {"name": "model_119/tf.nn.convolution_341/convolution/filter", "shape": [1, 1, 512, 512], "dtype": "float32"}, {"name": "model_119/tf.math.add_416/Add/y", "shape": [512], "dtype": "float32"}, {"name": "model_119/tf.strided_slice_97/ones_like/tensor", "shape": [4], "dtype": "int32"}, {"name": "model_119/tf.strided_slice_97/StridedSlice/end", "shape": [4], "dtype": "int32"}, {"name": "model_119/tf.strided_slice_97/ones_like", "shape": [4], "dtype": "int32"}, {"name": "model_119/tf.nn.convolution_342/convolution/filter", "shape": [3, 3, 256, 256], "dtype": "float32"}, {"name": "model_119/tf.math.add_417/Add/y", "shape": [256], "dtype": "float32"}, {"name": "model_119/tf.nn.convolution_343/convolution/filter", "shape": [3, 3, 256, 256], "dtype": "float32"}, {"name": "model_119/tf.math.add_418/Add/y", "shape": [256], "dtype": "float32"}, {"name": "model_119/tf.concat_103/concat/axis", "shape": [], "dtype": "int32"}, {"name": "model_119/tf.nn.convolution_344/convolution/filter", "shape": [1, 1, 768, 512], "dtype": "float32"}, {"name": "model_119/tf.math.add_421/Add/y", "shape": [512], "dtype": "float32"}, {"name": "model_119/tf.nn.convolution_345/convolution/filter", "shape": [1, 1, 512, 256], "dtype": "float32"}, {"name": "model_119/tf.math.add_422/Add/y", "shape": [256], "dtype": "float32"}, {"name": "model_119/tf.concat_104/concat/axis", "shape": [], "dtype": "int32"}, {"name": "model_119/tf.nn.convolution_346/convolution/filter", "shape": [1, 1, 1024, 512], "dtype": "float32"}, {"name": "model_119/tf.math.add_423/Add/y", "shape": [512], "dtype": "float32"}, {"name": "model_119/tf.concat_111/concat/axis", "shape": [], "dtype": "int32"}, {"name": "model_119/tf.nn.convolution_371/convolution/filter", "shape": [1, 1, 768, 512], "dtype": "float32"}, {"name": "model_119/tf.math.add_448/Add/y", "shape": [512], "dtype": "float32"}, {"name": "model_119/tf.strided_slice_105/ones_like/tensor", "shape": [4], "dtype": "int32"}, {"name": "model_119/tf.strided_slice_105/StridedSlice/end", "shape": [4], "dtype": "int32"}, {"name": "model_119/tf.strided_slice_105/ones_like", "shape": [4], "dtype": "int32"}, {"name": "model_119/tf.nn.convolution_374/convolution/filter", "shape": [3, 3, 256, 256], "dtype": "float32"}, {"name": "model_119/tf.math.add_451/Add/y", "shape": [256], "dtype": "float32"}, {"name": "model_119/tf.nn.convolution_375/convolution/filter", "shape": [3, 3, 256, 256], "dtype": "float32"}, {"name": "model_119/tf.math.add_452/Add/y", "shape": [256], "dtype": "float32"}, {"name": "model_119/tf.concat_112/concat/axis", "shape": [], "dtype": "int32"}, {"name": "model_119/tf.nn.convolution_376/convolution/filter", "shape": [1, 1, 768, 512], "dtype": "float32"}, {"name": "model_119/tf.math.add_453/Add/y", "shape": [512], "dtype": "float32"}, {"name": "model_119/tf.nn.convolution_378/convolution/filter", "shape": [3, 3, 512, 128], "dtype": "float32"}, {"name": "model_119/tf.math.add_455/Add/y", "shape": [128], "dtype": "float32"}, {"name": "model_119/tf.nn.convolution_380/convolution/filter", "shape": [3, 3, 128, 128], "dtype": "float32"}, {"name": "model_119/tf.math.add_457/Add/y", "shape": [128], "dtype": "float32"}, {"name": "model_119/tf.nn.convolution_382/convolution/filter", "shape": [1, 1, 128, 52], "dtype": "float32"}, {"name": "model_119/tf.math.add_459/Add/y", "shape": [52], "dtype": "float32"}, {"name": "model_119/tf.compat.v1.transpose_614/transpose/perm", "shape": [4], "dtype": "int32"}, {"name": "model_119/tf.reshape_137/Reshape/shape", "shape": [3], "dtype": "int32"}, {"name": "model_119/tf.concat_114/concat/axis", "shape": [], "dtype": "int32"}, {"name": "model_119/output0/concat/axis", "shape": [], "dtype": "int32"}]}]}